HW1_2_release/homework1_release/model_conv.ckpt (torch, 144431 bytes, 14 tensors)

layer1.0.weight f4 [16, 3, 5, 5]
-0.05718312 0.01272119 0.1157175 0.017625201 0.023255963 -0.02531432 0.0372161 0.077265866
0.04332147 0.015795149 0.04613715 -0.008226539 0.025038539 0.010027392 -0.04946018 0.089672856
0.082266025 0.02055835 0.09933836 0.07337355 0.04626532 -0.09606993 0.1113563 0.029603984
-0.0076073078 -0.021347784 -0.022009611 -0.056531698 -0.096234486 0.06982255 0.008447098 0.038580127
0.0019050606 -0.09501769 0.030475745 0.0004693861 -8.716284e-06 -0.021938121 0.03341908 -0.07103322
0.023303838 0.046315707 0.07639929 0.03492301 0.03390612 0.09721516 0.01903937 -0.08013047
-0.017554054 -0.05735242 0.007931893 -0.023531733 -0.030456282 0.038941704 0.055301405 -0.09987709
0.10258611 -0.002898992 0.088077724 0.0808353 0.050368853 0.054597303 0.046255693 0.023334652
-0.100224756 0.0837234 0.1031775 0.09775689 -0.019415403 -0.042349685 0.09758439 0.07897635
0.032337677 -0.09727822 0.024182763 -0.055611864 -0.048809253 -0.047698926 0.034098238 0.11420978
0.041063733 0.08974505 -0.011494135 -0.10751353 0.015897876 0.06216838 0.018882234 0.09493235
-0.051267534 -0.13289972 -0.013776677 -0.0010763968 -0.05252573 0.029668193 0.011845141 0.1040436
0.014809618 0.10664095 -0.08449578 0.03965228 0.049548727 -0.060896836 -0.0728123 -0.040672664
0.0069122454 -0.10081581 0.08755487 -0.029155826 0.028303647 0.081450626 -0.024740761 0.022771524
0.055946436 0.041163087 -0.08980965 0.039816942 0.06357472 0.080803476 -0.09764377 -0.11564465
-0.043060333 -0.108230464 -0.053152766 0.09248324 -0.1053343 -0.09533199 0.058544327 -0.03754474
0.13277696 0.0045074434 -0.06098164 0.08524595 -0.0659082 -0.1169755 0.05893056 0.08484912
0.027343329 -0.0123470975 0.05218362 -0.07254057 -0.008581191 -0.064648844 0.09002927 0.006410882
-0.07704694 0.035918977 0.06972325 -0.05970466 -0.060953625 0.08937165 0.090211436 0.054192793
-0.09141358 0.082027115 -0.024059823 -0.015547545 0.060797416 -0.10026663 0.07801894 -0.12729369
0.012932786 -0.008443406 -0.10850819 0.02516429 -0.1115813 0.07043197 0.031466585 -0.099471554
0.0065709315 -0.0040652337 -0.001454694 -0.017454429 0.059667747 0.024742864 -0.046099592 0.0722159
-0.026900033 -0.097743444 -0.00329655 -0.10042997 -0.0011472005 0.0033834248 0.076987855 -0.07798381
0.09685742 0.031025445 0.054936275 0.0041856254 -0.052477904 0.10391883 0.061399225 -0.10038959
-0.086614735 0.09293089 0.056278598 -0.09308878 -0.002539604 -0.037958894 -0.07031007 0.028173463
-0.12593544 0.008835689 0.031145714 0.065706894 0.08284263 -0.065643266 -0.07923425 0.074417934
-0.013741589 0.062268153 -0.032704625 0.10435777 0.08898289 -0.03252978 0.026058502 -0.04616035
0.059982855 -0.023197174 0.09361244 -0.105088264 0.028380154 0.0036345946 0.044459388 -0.039719682
0.07917953 0.10568758 0.06180925 -0.05530213 0.0048773787 -0.0058753253 0.004927122 0.10269542
-0.098926514 0.038290184 -0.03876976 -0.072996 0.041413013 0.024975125 -0.15148799 -0.10483608
0.049248576 0.027961256 0.068956204 0.026813122 0.033043 0.06518689 0.04815465 0.0150301
0.08123692 -0.0011290639 0.07738214 -0.053675897 -0.056063395 -0.10620549 -0.009814409 0.026282653
00000000: d938 6abd 8a6c 503c 4cfd ec3d ba62 903c
00000010: 4a83 be3c fa5f cfbc e96f 183d 913d 9e3d
00000020: db71 313d d464 813c 4ffa 3c3d 9bc8 06bc
00000030: 9f1d cd3c ee49 243c c296 4abd 67a6 b73d
00000040: 177b a83d fc69 a83c e971 cb3d df44 963d
00000050: b480 3d3d 50c0 c4bd c60e e43d 0e84 f23c
00000060: b946 f9bb 8ce1 aebc 804d b4bc c88d 67bd
00000070: 9616 c5bd 20ff 8e3d b265 0a3c 3206 1e3d
00000080: 3ab3 f93a a298 c2bd 45a8 f93c f017 f639
00000090: 283c 12b7 93b7 b3bc 72e2 083d dd79 91bd
000000a0: b1e7 be3c 8ab5 3d3d 3b77 9c3d 6e0b 0f3d
000000b0: 25e1 0a3d be18 c73d 74f8 9b3c 721b a4bd
000000c0: 85cd 8fbc 5fea 6abd c5f4 013c 9fc5 c0bc
000000d0: 747f f9bc 5681 1f3d ba83 623d 5c8c ccbd
000000e0: ab18 d23d 04fd 3dbb 1862 b43d fa8c a53d
000000f0: 924f 4e3d 6ca1 5f3d 9c76 3d3d 5028 bf3c
00000100: a342 cdbd 2d77 ab3d ba4e d33d c434 c83d
00000110: 0d0d 9fbc dd76 2dbd 53da c73d 5abe a13d
00000120: 8374 043d ce39 c7bd ee1a c63c 44c9 63bd
00000130: 36ec 47bd f35f 43bd 98aa 0b3d d1e6 e93d
00000140: 7232 283d 41cc b73d e551 3cbc 0e30 dcbd
00000150: 433c 823c 45a4 7e3d eaae 9a3c e46b c23d
00000160: e8fd 51bd dd16 08be 92b7 61bc e215 8dba
00000170: 3825 57bd b60a f33c 1f12 423c d014 d53d
00000180: 0aa4 723c 9266 da3d 200c adbd 6e6a 223d
00000190: 9bf3 4a3d f66e 79bd 9d1e 95bd 6198 26bd
000001a0: 1e80 e23b 8578 cebd f84f b33d 33d8 eebc
000001b0: 0ddd e73c 96cf a63d 23ad cabc 598b ba3c
000001c0: 1728 653d a09a 283d 1fee b7bd 1717 233d
000001d0: 7633 823d 4b7c a53d 75f9 c7bd 1ad7 ecbd
000001e0: 0860 30bd efa7 ddbd b7b6 59bd da67 bd3d
000001f0: 82b9 d7bd 6b3d c3bd 2dcc 6f3d 83c8 19bd
00000200: aff6 073e 2db3 933b e2c7 79bd 6e95 ae3d
00000210: e1fa 86bd da90 efbd 2c61 713d 60c5 ad3d
00000220: 1eff df3c 7b4b 4abc 7ebe 553d 2690 94bd
00000230: 2098 0cbc 9d66 84bd 4461 b83d 6012 d23b
00000240: c9ca 9dbd c71f 133d 10cb 8e3d e08c 74bd
00000250: 82aa 79bd 7c08 b73d c6c0 b83d 43f9 5d3d
00000260: 0b37 bbbd d5fd a73d 1b19 c5bc 21bb 7ebc
00000270: b606 793d 9758 cdbd 65c8 9f3d 4759 02be
00000280: 09e4 533c 3656 0abc 8b39 debd 5725 ce3c
00000290: bd84 e4bd a33e 903d 1be3 003d beb7 cbbd
000002a0: f850 d73b a735 85bb 6eab beba 97fc 8ebc
000002b0: 2b66 743d 8cb1 ca3c edd2 3cbd eee5 933d
000002c0: 755d dcbc b72d c8bd ee0a 58bb 3aae cdbd
000002d0: a95d 96ba 73bc 5d3b cfab 9d3d fab5 9fbd
000002e0: 2f5d c63d 1329 fe3c dc04 613d 9227 893b
000002f0: 12f3 56bd 65d3 d43d c17d 7b3d 0f99 cdbd
00000300: 1163 b1bd 8d52 be3d 6384 663d 55a5 bebd
00000310: 7c6f 26bb c97a 1bbd bafe 8fbd 09cc e63c
00000320: 38f5 00be 91c3 103c 4c25 ff3c 5691 863d
00000330: 66a9 a93d fa6f 86bd 9145 a2bd 6e68 983d
00000340: 6724 61bc e40c 7f3d 49f5 05bd 87b9 d53d
00000350: a93c b63d f23d 05bd a478 d53c a312 3dbd
00000360: 95b0 753d 0008 bebc e1b7 bf3d 8438 d7bd
00000370: 7f7d e83c 6132 6e3b 0c1b 363d 1bb1 22bd
00000380: e128 a23d bb72 d83d b22b 7d3d 7c84 62bd
00000390: 6bd2 9f3b cd85 c0bb b273 a13b fa51 d23d
000003a0: fc99 cabd 2bd6 1c3d 0acd 1ebd ed7e 95bd
000003b0: b1a0 293d a298 cc3c ab1f 1bbe 4cb4 d6bd
000003c0: e0b8 493d 010f e53c e938 8d3d 31a7 db3c
000003d0: 1958 073d b480 853d cf3d 453d cf40 763c
000003e0: 8b5f a63d 19fd 93ba 877a 9e3d 42db 5bbd
000003f0: bba2 65bd 4482 d9bd 9dcc 20bc b84e d73c

layer1.0.bias f4 [16]
-0.06006128 0.03824454 -0.09864105 0.0256286 -0.085846625 -0.11695262 -0.051072754 -0.058581688
0.012293644 -0.06492114 0.032897666 -0.017418781 0.09837981 -0.048830837 -0.0078060958 -0.034066208
00000000: d102 76bd 4fa6 1c3d 5204 cabd 12f3 d13c
00000010: 5bd0 afbd db84 efbd aa31 51bd 5af3 6fbd
00000020: 486b 493c 60f5 84bd b4bf 063d d5b1 8ebc
00000030: 5b7b c93d d802 48bd 47ca ffbb 0289 0bbd

layer1.1.weight f4 [16]
0.9823727 0.99203724 1.0014025 0.99624455 0.9788904 0.9874562 0.99531215 1.0011569
1.016849 1.0127932 1.0115467 1.0117875 0.99604994 0.9951711 1.024345 0.9755754
00000000: c77c 7b3f 27f6 7d3f f52d 803f e209 7f3f
00000010: 9098 7a3f eec9 7c3f c7cc 7e3f e925 803f
00000020: 1c28 823f 35a3 813f 5d7a 813f 4182 813f
00000030: 21fd 7e3f 89c3 7e3f bd1d 833f 4fbf 793f

layer1.1.bias f4 [16]
0.018475896 0.072282605 0.02268827 -0.07917887 -0.0075507844 -0.04524817 -0.05632691 -0.024145057
-0.012433569 -0.062269364 0.16207801 -0.0034694483 0.018390179 -0.034116186 -0.07321016 0.063274376
00000000: c35a 973c e708 943d c0dc b93c 8828 a2bd
00000010: 926c f7bb 2556 39bd 0cb7 66bd dbcb c5bc
00000020: 2bb6 4bbc 290e 7fbd c7f7 253e af5f 63bb
00000030: 00a7 963c 6abd 0bbd 35ef 95bd ff95 813d

layer1.1.running_mean f4 [16]
0.5316156 0.019027611 -0.08657221 0.06264865 -0.05483524 -0.3211177 -0.049667794 -0.51635855
-0.03428733 -0.11081578 0.04409278 -0.04070651 0.1182643 -0.1740457 -0.014561739 -0.026763763
00000000: f617 083f cbdf 9b3c c54c b1bd ef4d 803d
00000010: eb9a 60bd 8a69 a4be 7570 4bbd 1330 04bf
00000020: df70 0cbd 62f3 e2bd a29a 343d dfbb 26bd
00000030: 8e34 f23d 0939 32be 5c94 6ebc ae3f dbbc

layer1.1.running_var f4 [16]
0.09055612 0.0063527743 0.0028866394 0.030502722 0.0038640457 0.029535815 0.014755768 0.0661239
0.007634828 0.0154359285 0.014936954 0.00964469 0.008576613 0.011101973 0.021567762 0.008934359
00000000: 7d75 b93d ef2a d03b c62d 3d3b d8e0 f93c
00000010: ee3b 7d3b 18f5 f13c 2dc2 713c f86b 873d
00000020: 942d fa3b fae6 7c3c 20ba 743c c304 1e3c
00000030: ec84 0c3c 0de5 353c e0ae b03c 6b61 123c

layer2.0.weight f4 [32, 16, 5, 5]
-0.02083792 0.012245455 -0.03611294 0.019230364 0.015543051 0.04803595 0.044927537 -0.055826463
-0.013812157 -0.025731573 0.005951686 -0.043849394 -0.029840618 0.0047217663 -0.0051151416 0.00043135643
0.02618767 0.02885099 0.026082406 0.037998218 0.06273302 -0.0006463018 0.0014602254 0.03268691
-0.026496757 -0.00992539 -0.007422968 0.01583297 -0.021291476 0.013022169 0.046756007 0.013197259
-0.030795619 0.053613044 -0.01627248 -0.03774735 0.005947253 0.039688323 0.008197592 -0.03402646
0.050562922 0.043913335 -0.007375042 -0.025019392 -0.030158892 0.028735582 0.0024396204 0.0253168
0.05525078 0.015147806 -0.004145837 -0.013210429 -0.05436769 -0.043063454 0.014693026 0.008958814
-0.046753615 0.0307224 -0.052544873 -0.058054507 -0.035187967 -0.05187186 -0.04682628 -0.04423107
-0.050905738 -0.0659228 -0.017587071 0.022962289 -0.015079369 -0.04153683 -0.023800638 0.04050059
-0.02330836 0.036789894 0.009441216 -0.042502362 -0.027703118 -0.024342028 0.064511344 -0.022131963
-0.045908064 0.023331972 0.032637224 -0.039010793 -0.05035655 0.00690564 -0.014263696 0.014204956
-0.012954335 0.0696356 -0.047121633 0.023571782 0.04631319 0.0018914304 -0.048502404 -0.033450108
0.002617874 -0.028478334 -0.04190896 0.0041676117 0.028487023 0.03347384 0.03424394 0.050674282
0.004020877 0.03530937 -0.01230756 -0.025283566 -0.024056986 -0.00733008 0.025252853 -0.046225104
0.045566082 -0.023033142 0.0053187287 -0.019269982 0.00039381307 -0.0067017744 -0.0029532947 -0.0056249024
-0.018022437 0.034004178 -0.023924593 0.026214497 0.0206899 0.025907058 0.010501729 0.02649282
0.043203022 -0.029492456 0.024765836 -0.015547495 -0.038978036 -0.005797744 0.0071029114 -0.025113525
0.032887973 0.022065997 -0.046037413 -0.037025847 -0.048300542 -0.059040986 0.015195995 -0.015519048
-0.01006112 -0.015399868 0.0030679344 -0.012686478 -0.02252778 0.010775299 0.010550777 0.017179571
-0.047419738 0.04051975 0.050367292 -0.045458134 -0.012449774 0.025907347 -0.031250592 -0.020897195
-0.055455055 -0.07320937 -0.04366636 -0.06182753 0.015079552 -0.06532437 -0.060513638 -0.04627624
-0.055820387 -0.07442002 -0.049793128 -0.0036493577 -0.043586217 -0.032025635 -0.04703024 -0.049827933
0.041178934 0.04392623 0.0012632385 -0.0040350333 -0.017871965 -0.027720962 0.03371713 -0.024791518
0.0046528648 0.039297137 -0.052362956 -0.014408155 -0.013256137 -0.0026131843 -0.016631337 -0.022613611
0.038212225 0.056948286 0.03502318 -0.006201662 0.03794571 -0.060662214 -0.005009235 -0.0047118785
0.036124323 0.0040143626 -0.018539464 -0.05152206 0.041784227 0.012842227 -0.032068364 0.06039513
0.029217139 -0.04269035 0.02125774 0.082836606 0.048433747 0.04909554 0.015886411 0.040470276
-0.012505523 0.06324503 -0.01899886 0.03290346 -0.02183974 0.05454959 0.0230588 -0.05152441
-0.042597547 -0.011989148 -0.007934944 0.006791219 0.016480172 0.045316752 0.042249627 0.061619766
-0.03499973 -0.05643622 -0.015891746 -0.018870346 -0.017717415 -0.023615163 0.035716623 0.016901912
-0.039561894 0.011955833 0.018169945 0.03299235 0.013631133 -0.0107688615 0.014508238 0.0515536
0.01143649 0.004971813 -0.0015296099 0.002696187 0.009314913 0.0074842125 -0.044904713 -0.01646853
00000000: 49b4 aabc 29a1 483c 2aeb 13bd ff88 9d3c
00000010: 48a8 7e3c 58c1 443d f005 383d 4aaa 64bd
00000020: 634c 62bc 05cb d2bc 5c06 c33b 6c9b 33bd
00000030: 5074 f4bc 0cb9 9a3b eb9c a7bb ae27 e239
00000040: 8687 d63c e958 ec3c c5aa d53c 05a4 1b3d
00000050: 2b7a 803d 946c 29ba 0965 bf3a b6e2 053d
00000060: ba0f d9bc 1a9e 22bc 5e3c f3bb 25b4 813c
00000070: 766b aebc ef5a 553c 3a83 3f3d 5139 583c
00000080: 1847 fcbc 5a99 5b3d dd4d 85bc f79c 1abd
00000090: 2de1 c23b 3990 223d 314f 063c 545f 0bbd
000000a0: 111b 4f3d 78de 333d 56aa f1bb 78f5 ccbc
000000b0: c80f f7bc e266 eb3c 0ae2 1f3b 2e65 cf3c
000000c0: a44e 623d 812e 783c cdd9 87bb 8e70 58bc
000000d0: a8b0 5ebd 4e63 30bd 05bb 703c fdc7 123c
000000e0: b880 3fbd 8bad fb3c 4b39 57bd 90ca 6dbd
000000f0: 4221 10bd 9677 54bd eacc 3fbd a32b 35bd
00000100: 8982 50bd 8802 87bd c312 90bc 691b bc3c
00000110: 750f 77bc 8622 2abd 8ef9 c2bc f2e3 253d
00000120: 2cf1 bebc 00b1 163d 54af 1a3c f516 2ebd
00000130: a6f1 e2bc ef68 c7bc 861e 843d 174e b5bc
00000140: 180a 3cbd b122 bf3c 9cae 053d c8c9 1fbd
00000150: ab42 4ebd b548 e23b 47b2 69bc e7bb 683c
00000160: 6b3e 54bc 1c9d 8e3d 9d02 41bd 9c19 c13c
00000170: e6b2 3d3d dfe9 f73a 75aa 46bd fb02 09bd
00000180: a390 2b3b 654b e9bc bba8 2bbd 7690 883b
00000190: 9e5d e93c de1b 093d 6043 0c3d d68f 4f3d
000001a0: 90c1 833b 8fa0 103d a6a5 49bc 7b1f cfbc
000001b0: 2813 c5bc 2b31 f0bb 12df ce3c 8956 3dbd
000001c0: 80a3 3a3d 00b0 bcbc bb48 ae3b 15dc 9dbc
000001d0: b278 ce39 8f9a dbbb 108c 41bb 1a51 b8bb
000001e0: caa3 93bc f747 0b3d 82fd c3bc c9bf d63c
000001f0: dd7d a93c 0a3b d43c 720f 2c3c 7807 d93c
00000200: a7f5 303d 2a9a f1bc b9e1 ca3c ecba 7ebc
00000210: 6fa7 1fbd 00fb bdbb 8abf e83b e1ba cdbc
00000220: 8ab5 063d c0c3 b43c ba91 3cbd 6aa8 17bd
00000230: cad6 45bd f6d4 71bd 9ff8 783c 9b43 7ebc
00000240: 65d7 24bc ba4f 7cbc 660f 493b f2da 4fbc
00000250: 2e8c b8bc e18a 303c 2bdd 2c3c 2cbc 8c3c
00000260: 333b 42bd 0af8 253d ef4d 4e3d 4f32 3abd
00000270: 23fa 4bbc a53b d43c 9f00 00bd 9830 abbc
00000280: d724 63bd cbee 95bd 7fdb 32bd dd3e 7dbd
00000290: 3a10 773c c9c8 85bd 26dd 77bd 288c 3dbd
000002a0: eba3 64bd 8669 98bd e1f3 4bbd 102a 6fbb
000002b0: 7687 32bd 502d 03bd c8a2 40bd 6018 4cbd
000002c0: 3eab 283d feeb 333d 4093 a53a 5038 84bb
000002d0: 3a68 92bc 1217 e3bc f91a 0a3d 9517 cbbc
000002e0: 0f77 983b 09f6 203d 8a7a 56bd 2f10 6cbc
000002f0: 4530 59bc f541 2bbb 713e 88bc 2e40 b9bc
00000300: 6c84 1c3d 9b42 693d 7774 0f3d 5037 cbbb
00000310: f66c 1b3d f178 78bd 8224 a4bb 1a66 9abb
00000320: 19f7 133d ea8a 833b 13e0 97bc cc08 53bd
00000330: f025 2b3d 3468 523c 1e5a 03bd e260 773d
00000340: c858 ef3c 14dc 2ebd b624 ae3c 3da6 a93d
00000350: 7762 463d 6818 493d 3824 823c 29c4 253d
00000360: f7e3 4cbc 9c86 813d 7fa3 9bbc c7c5 063d
00000370: 41e9 b2bc 646f 5f3d cfe5 bc3c 420b 53bd
00000380: c47a 2ebd 226e 44bc 9101 02bc e088 de3b
00000390: 6d01 873c 0f9e 393d f20d 2d3d 0265 7c3d
000003a0: e05b 0fbd aa29 67bd 682f 82bc fc95 9abc
000003b0: 1d24 91bc 9674 c1bc 984b 123d e175 8a3c
000003c0: a70b 22bd 66e2 433c 23d9 943c fd22 073d
000003d0: 1e55 5f3c e16f 30bc f6b3 6d3c de29 533d
000003e0: 1e60 3b3c 97ea a23b 317d c8ba 83b2 303b
000003f0: 949d 183c 203e f53b 01ee 37bd 03e9 86bc

layer2.0.bias f4 [32]
0.03828333 0.025459878 0.01717148 -0.0100210365 0.04312185 0.02740861 -0.031729948 0.058085274
-0.030531352 0.020576246 0.019872867 0.0032984482 -0.019071238 -0.02105418 0.031259548 -0.021888057
-0.021602755 -0.032975823 0.036218807 0.016215874 0.02248769 0.028442774 -0.011410023 -0.023877779
0.036344133 0.032234937 0.02117374 -0.026624875 0.05229169 -0.041862875 -0.010420043 -0.01165675
00000000: fbce 1c3d 3c91 d03c 34ab 8c3c 462f 24bc
00000010: 89a0 303d 0588 e03c 43f7 01bd d3ea 6d3d
00000020: e31c fabc 848f a83c 6ccc a23c c72a 583b
00000030: 493b 9cbc d179 acbc 030a 003d 954e b3bc
00000040: 43f8 b0bc a811 07bd 2c5a 143d 27d7 843c
00000050: 1b38 b83c d200 e93c 1bf1 3abc 559b c3bc
00000060: 96dd 143d c808 043d 8d74 ad3c 691c dabc
00000070: d02f 563d 6878 2bbd d4b8 2abc f4fb 3ebc

layer2.1.weight f4 [32]
1.1146806 1.1540692 1.1023068 1.1047173 1.1621525 1.2159272 1.156193 1.1499828
1.1532333 1.1161958 1.138147 1.2058637 1.1660508 1.1834582 1.1199622 1.1566169
1.1201016 1.1124226 1.1103568 1.1379266 1.1548667 1.137882 1.1162763 1.101014
1.1141866 1.208194 1.107011 1.171841 1.1190671 1.1318679 1.1203055 1.1960653
00000000: dbad 8e3f 8ab8 933f 6418 8d3f 6067 8d3f
00000010: 6ac1 943f 81a3 9b3f 22fe 933f a332 933f
00000020: 269d 933f 81df 8e3f cdae 913f be59 9a3f
00000030: 2741 953f 8f7b 973f ec5a 8f3f 060c 943f
00000040: 7d5f 8f3f dd63 8e3f 2c20 8e3f 94a7 913f
00000050: acd2 933f 1ea6 913f 24e2 8e3f 07ee 8c3f
00000060: ab9d 8e3f 1aa6 9a3f 89b2 8d3f e3fe 953f
00000070: 973d 8f3f 0ce1 903f 2c66 8f3f ab18 993f

layer2.1.bias f4 [32]
0.02519904 0.006519966 -0.0015457224 0.036455363 0.001965298 -0.029668793 -0.024496112 -0.010191354
0.009433166 0.008373067 0.018304128 -0.025676593 -0.02582402 -0.01803055 0.01944802 0.00032717534
0.0024827227 0.017343845 0.010419493 -0.0015395854 0.017784346 0.025263073 0.013530525 0.012960777
0.036344197 0.023603352 0.03458076 4.9001824e-06 0.019996122 0.009333158 -0.014785329 0.010366584
00000000: 386e ce3c 70a5 d53b d699 caba 3852 153d
00000010: 3bcc 003b f80b f3bc 12ac c8bc a3f9 26bc
00000020: 918d 1a3c 302f 093c 8af2 953c b857 d2bc
00000030: e58c d3bc ceb4 93bc 7451 9f3c bb88 ab39
00000040: 2db5 223b ae14 8e3c 85b6 2a3c eacb c9ba
00000050: 7ab0 913c 81f4 ce3c 23af 5d3c 7059 543c
00000060: a7dd 143d d15b c13c 8ea4 0d3d 3f6c a436
00000070: e8ce a33c 1aea 183c 2a3e 72bc 9bd8 293c

layer2.1.running_mean f4 [32]
-0.07439789 0.11631484 0.0097225765 0.09128363 -0.06848695 -0.39848655 0.043032467 -0.81239057
-0.3464244 -0.23534144 -0.26325724 -0.6729081 -0.3713093 -0.22790211 -0.42381078 0.038540717
-0.11419082 -0.3364126 0.44262934 0.10152998 -0.26900512 0.012624685 -0.27152005 -0.3135202
-0.22240138 0.19512679 0.13672869 0.19774161 -0.055131964 -0.008791484 -0.0715429 -0.013460519
00000000: ec5d 98bd 7a36 ee3d 714b 1f3c e9f2 ba3d
00000010: e342 8cbd 6e06 ccbe d042 303d d4f8 4fbf
00000020: 8a5e b1be 59fd 70be a7c9 86be b543 2cbf
00000030: 411c bebe 2c5f 69be bafd d8be dfdc 1d3d
00000040: e0dc e9bd 463e acbe 50a0 e23e f3ee cf3d
00000050: 0abb 89be c4d7 4e3c ad04 8bbe b885 a0be
00000060: 30bd 63be 51cf 473e 9b02 0c3e c77c 4a3e
00000070: 0ed2 61bd 280a 10bc 1585 92bd 8289 5cbc

layer2.1.running_var f4 [32]
0.16287278 0.093798585 0.16624328 0.113354646 0.13526218 0.16283183 0.11170227 0.1849272
0.18388458 0.16586791 0.14710866 0.15042295 0.16238023 0.11524464 0.13122556 0.11302412
0.14863496 0.12208644 0.07937875 0.14559712 0.11085639 0.09798217 0.16190352 0.12502114
0.10524901 0.104473256 0.09729936 0.103773735 0.12918535 0.10008647 0.1340168 0.11122626
00000000: 1fc8 263e 7919 c03d ae3b 2a3e 7b26 e83d
00000010: 2b82 0a3e 63bd 263e 29c4 e43d 8e5d 3d3e
00000020: 3d4c 3c3e 47d9 293e a7a3 163e 7908 1a3e
00000030: 0147 263e 6205 ec3d fe5f 063e 3179 e73d
00000040: c333 183e 7508 fa3d 5391 a23d 6917 153e
00000050: ad08 e33d e0aa c83d 09ca 253e 8b05 003e
00000060: cb8c d73d 13f6 d53d e344 c73d 5387 d43d
00000070: 2a49 043e 23fa cc3d b33b 093e 98ca e33d

fc.weight f4 [10, 2048]
-0.0028006742 -0.026982987 -0.0040564607 -0.0065962365 -0.005595196 -0.017685939 -0.03535222 -0.021405337
-0.016797723 -0.0032416766 0.019519359 -0.020135572 0.008366591 -0.011233517 -0.0099238455 -0.038929097
-0.04679894 -0.016189203 -0.029307898 -0.032708548 -0.035754003 -0.012452296 -0.010110814 -0.0045494456
0.0012131789 0.003844064 -0.04276605 -0.019333323 -0.034052085 -0.038143754 -0.02882016 -0.05888537
-0.0260069 -0.039845493 -0.08157316 -0.04612317 -0.019787129 -0.01404656 -0.034367803 0.020464655
-0.032118846 -0.017149283 -0.046019815 -0.028084852 -0.0066294796 0.02184981 0.032238476 -0.062809646
-0.008864042 -0.011748562 -0.0039793174 -0.020389065 -0.00080405065 0.016267195 0.01053603 -0.0055716066
0.005257876 0.008364678 -0.0020845511 0.036317635 0.011775686 -0.01499446 0.015285074 -0.004854435
0.027991278 0.012800885 0.00031970095 0.008415999 0.0010190954 -0.039370846 0.043428093 0.013392722
0.030078618 -0.0014335251 0.023582432 0.033523936 -0.017045088 -0.025530972 0.025214916 0.0061539817
0.026814982 0.035085108 -0.026370917 -0.013576622 -0.01784931 0.006163617 -0.015920678 0.00011296684
0.028413769 -0.02287863 0.023878263 0.019834124 -0.026670618 -0.029418137 -0.024944002 -0.027874926
-0.046822984 0.028282886 0.0037678613 0.05606709 0.0146719655 -0.05814898 -0.025397383 -0.010820661
-0.008117894 -0.012839707 0.021124775 0.040464036 -0.016429234 -0.0027793946 -0.063024074 -0.01177992
-0.02780938 -0.020020211 0.021612255 0.01954105 0.013034176 0.03358231 0.015602015 -0.027257742
0.00024659446 -0.019914815 0.006596701 -0.0052224747 -0.007966244 0.0038477923 0.0008528647 0.013015017
-0.014114167 -0.010889204 -0.013841723 0.0005047976 0.0037886826 -0.015063119 0.024135927 0.0022329914
0.0046071904 -0.020663066 0.023252483 0.036980733 0.027089404 -0.014187073 -0.0029489566 0.009681132
0.030003762 0.0021671767 0.009259346 -0.007462929 -0.0016229489 -0.001737564 0.034048513 0.009388446
0.016121013 0.009292886 -0.0023937137 -0.0008120968 0.009993377 0.011542707 0.0036943562 0.019826792
0.010840287 0.017105674 0.010650974 -0.006826369 9.831468e-06 -0.0020710407 0.063913584 0.010726766
0.0015210288 -0.00089419825 -0.0061300797 -0.019692918 0.016040504 0.0035821376 -0.011933852 -0.022204297
0.012281176 0.022567458 0.0016689991 0.010325713 -0.00048431836 -0.0139029445 0.010781148 -0.016507007
-0.015669785 -0.0054816846 -0.0057439324 0.0069073983 0.032430943 0.022342125 0.014975112 -0.019986516
0.008049722 -0.0030772695 -0.007035029 -0.008617288 -0.01998446 0.012664372 -0.036856364 0.008933517
-0.01842668 -0.054294985 -0.008624509 -0.029223617 -0.0069933287 -0.030365083 -0.036343507 -0.0210679
0.008137206 0.0046373177 -0.0145921875 0.008886136 0.017199166 -0.017309837 -0.004739441 0.015912613
-0.00845343 -0.012687494 -0.0068962327 0.018654436 0.018847402 -0.018358229 -0.0021525947 0.0354241
0.0048577674 0.009780942 -0.0008427734 0.038013525 0.050272476 0.009680184 -0.025577016 -0.010512456
-0.030373948 0.0410207 0.044497672 0.015875386 0.0077823456 0.0054699862 0.022573771 0.010301073
-0.055412427 0.030128958 0.0007092396 0.039802946 0.013244293 0.00023568599 -0.040941212 -0.002536164
-0.050623074 -0.0332907 -0.06010014 -0.04217051 0.009263368 -0.0021539 0.017558075 -0.066729896
00000000: 848b 37bb 6d0b ddbc 0fec 84bb 3e25 d8bb
00000010: e857 b7bb 1ae2 90bc 7dcd 10bd 3f5a afbc
00000020: 619b 89bc 4f72 54bb 10e7 9f3c 5bf3 a4bc
00000030: 0714 093c c90c 38bc a097 22bc 1e74 1fbd
00000040: 3fb0 3fbd 389f 84bc 1e17 f0bc 66f9 05bd
00000050: ca72 12bd b704 4cbc d4a7 25bc 8413 95bb
00000060: 8703 9f3a b1ec 7b3b 742b 2fbd eb60 9ebc
00000070: 337a 0bbd a03c 1cbd 4218 ecbc c931 71bd
00000080: 6c0c d5bc 0735 23bd d40f a7bd a6eb 3cbd
00000090: 9e18 a2bc 8b23 66bc 41c5 0cbd 7ea5 a73c
000000a0: 0d8f 03bd a77c 8cbc 467f 3cbd 3412 e6bc
000000b0: 1b3c d9bb 5ffe b23c 7e0c 043d 58a2 80bd
000000c0: 7d3a 11bc 0a7d 40bc ef64 82bb f806 a7bc
000000d0: edc6 52ba c842 853c 509f 2c3c 0692 b6bb
000000e0: 434a ac3b 010c 093c f79c 08bb cdc1 143d
000000f0: cfee 403c 53ab 75bc 3f6e 7a3c f411 9fbb
00000100: f74d e53c ceba 513c 899d a739 42e3 093c
00000110: 2b93 853a 5343 21bd a8e1 313d 266d 5b3c
00000120: 6f67 f63c 1fe5 bbba f22f c13c 6550 093d
00000130: 24a2 8bbc 5426 d1bc 838f ce3c 57a7 c93b
00000140: 18ab db3c 67b5 0f3d d207 d8bc 7b70 5ebc
00000150: b738 92bc 2bf8 c93b 156c 82bc 9ce8 ec38
00000160: fec3 e83c f76b bbbc 599c c33c 2c7b a23c
00000170: 577c dabc 4efe f0bc 5d57 ccbc f559 e4bc
00000180: 75c9 3fbd 83b1 e73c 39ee 763b 9ba6 653d
00000190: af62 703c a02d 6ebd 2c0e d0bc 2449 31bc
000001a0: ea00 05bc a25d 52bc dd0d ad3c 9ebd 253d
000001b0: 9a96 86bc 8126 36bb c412 81bd 9100 41bc
000001c0: 7fd0 e3bc 6d01 a4bc 2f0c b13c 8d14 a03c
000001d0: 4c8d 553c 9b8d 093d 989f 7f3c a14b dfbc
000001e0: 5949 8139 6524 a3bc 2429 d83b 4b21 abbb
000001f0: d984 02bc 3e2b 7c3b c892 5f3a f03c 553c
00000200: 1b3f 67bc a268 32bc 65c8 62bc 6554 043a
00000210: 8c4b 783b 4dcb 76bc b5b8 c53c 6157 123b
00000220: eaf7 963b 9745 a9bc fe7b be3c 1c79 173d
00000230: 99ea dd3c e670 68bc 4843 41bb 9c9d 1e3c
00000240: 73ca f53c 3107 0e3b 83b4 173c 968b f4bb
00000250: 21b9 d4ba f9be e3ba 7476 0b3d ffd1 193c
00000260: 3710 843c 3041 183c dadf 1cbb e5e2 54ba
00000270: 43bb 233c 9f1d 3d3c 031d 723b cc6b a23c
00000280: 769b 313c 3321 8c3c 6c81 2e3c bcaf dfbb
00000290: d5f1 2437 4cba 07bb 20e5 823d 51bf 2f3c
000002a0: 425d c73a a168 6aba d6de c8bb 0b53 a1bc
000002b0: 6067 833c 4cc2 6a3b 3486 43bc c9e5 b5bc
000002c0: fc36 493c 64df b83c 51c2 da3a 2e2d 293c
000002d0: 1cec fdb9 2dc9 63bc 6aa3 303c b439 87bc
000002e0: ec5d 80bc b49f b3bb 9937 bcbb 7557 e23b
000002f0: 4fd6 043d d506 b73c 2c5a 753c c3ba a3bc
00000300: fbe2 033c 04ac 49bb 1a86 e6bb 872f 0dbc
00000310: 73b6 a3bc 3a7e 4f3c b3f6 16bd e35d 123c
00000320: 8cf3 96bc 6b64 5ebd d04d 0dbc 5e66 efbc
00000330: 4b28 e5bb 32c0 f8bc eedc 14bd 9796 acbc
00000340: ea51 053c a4f4 973b 1214 6fbc 2897 113c
00000350: 44e5 8c3c 5ccd 8dbc 504d 9bbb 2b5b 823c
00000360: 4180 0abc 35df 4fbc cbf9 e1bb 30d1 983c
00000370: de65 9a3c ff63 96bc 8c12 0dbb dc18 113d
00000380: e82d 9f3b 3f40 203c 91ed 5cba 12b4 1b3d
00000390: 83ea 4d3d a299 1e3c e486 d1bc 703c 2cbc
000003a0: c9d2 f8bc 5205 283d 3143 363d 190d 823c
000003b0: 0c03 ff3b 923d b33b a1ec b83c d5c5 283c
000003c0: 24f8 62bd 01d1 f63c 44ec 393a 6a08 233d
000003d0: 97fe 583c 7a22 7739 f9b1 27bd c535 26bb
000003e0: 245a 4fbd d45b 08bd 902b 76bd fcba 2cbd
000003f0: 62c5 173c 7228 0dbb f4d5 8f3c afa9 88bd

fc.bias f4 [10]
-0.0076205777 -0.01188549 0.0029934319 -0.014248043 0.029816099 0.016180003 0.010318596 -0.02261242
0.011352671 0.026573833
00000000: 0ab6 f9bb 5cbb 42bc 742d 443b a070 69bc
00000010: e440 f43c ed8b 843c 540f 293c af3d b9bc
00000020: 8e00 3a3c 5eb1 d93c
