HW1_2_release/homework1_release/resnet.ckpt (torch, 819343 bytes, 77 tensors)

conv.weight f4 [16, 3, 3, 3]
0.118156426 0.08292289 0.1632881 -0.06814498 -0.24210991 -0.090587296 -0.005721776 -0.070589155
0.019255085 0.19811767 0.018054195 -0.1195254 -0.023761425 -0.018041667 -0.05904072 0.11659126
0.08002433 -0.075759 0.11089418 -0.08247505 0.02570944 0.072079636 -0.24349527 0.10064327
0.06353377 -0.0001242258 -0.10238194 0.18117198 0.09222871 -0.14517224 -0.20130922 -0.17087536
0.24667677 0.022460358 -0.15573832 0.16696073 0.16375154 -0.018441124 0.062104274 -0.01503875
-0.30624127 0.017290536 0.118448965 0.12055103 -0.17826286 0.0685666 -0.083736494 -0.10947433
-0.0700309 0.08474217 0.0759528 -0.06923164 -0.049366828 0.14152695 0.15892844 -0.04435403
0.0996702 0.013904897 0.12865554 0.22298117 0.025661249 -0.023604719 -0.18290165 0.06572732
-0.21428402 -0.07554851 0.021787288 -0.019398546 0.110362895 -0.097264975 -0.1472753 -0.043235064
0.002900815 -0.050155357 -0.051861387 0.060968116 -0.20548493 -0.12353835 0.06541937 -0.16533943
0.10488457 -0.15174384 0.058075525 0.28914928 -0.10632782 -0.07711257 -0.008376949 -0.19932218
0.052232087 0.051585637 -0.23405439 0.07473978 -0.087884314 0.048645064 -0.20495155 -0.043445136
0.11777709 0.00065702957 0.22975056 -0.14196715 0.15113355 -0.08265047 -0.073391475 -0.11081415
0.1893023 0.008879586 0.19920938 0.030064177 -0.023209857 0.017667066 -0.01635441 0.27359915
0.05376924 -0.32738054 0.14615878 0.16979192 0.07994191 -0.032574795 0.017971555 -0.027742878
0.1765242 -0.042931303 -0.023430487 -0.11489633 -0.04956236 -0.13534616 -0.09641203 -0.08207872
-0.039504513 0.23719811 0.17665893 -0.21801381 0.18750219 -0.052330267 0.00050199026 -0.026590677
0.17323771 -0.017647766 0.1461597 -0.16925707 0.19555022 -0.0696033 -0.021235727 -0.17348571
-0.090132795 -0.120680705 0.052210376 0.15426101 -0.10214621 0.059727825 0.077288106 0.18123113
-0.2601493 -0.060443442 -0.20606732 -0.06325606 -0.05819517 0.04236369 0.13119459 -0.005341511
0.26128778 -0.014696534 -0.12633055 0.019160785 0.14838736 -0.20099019 -0.10879708 -0.054271344
-0.09274221 -0.26278672 0.1854036 0.091694795 -0.028392142 -0.05803952 0.10772093 0.14022717
0.046717618 -0.1230184 -0.23068574 -0.1138634 0.08988853 0.16669777 0.02363471 -0.12147391
-0.14319186 -0.01599913 0.08672643 0.05165405 0.15061937 -0.1968124 -0.0015119462 0.11210711
-0.109723635 0.13236614 -0.14249659 -0.14428377 -0.14868326 0.020812793 0.20813972 0.007869366
0.09643069 0.23365483 -0.12323148 0.19851573 0.20063296 0.08047684 0.039123237 -0.1282279
-0.19214135 0.032726213 -0.0451373 -0.14409336 -0.19180557 0.10755397 -0.004091285 0.11500649
-0.084015965 -0.17939402 -0.08696958 -0.13799164 -0.2334549 -0.13312401 -0.13221169 0.13982223
0.18495455 0.080759935 0.102144524 -0.11372127 0.09044286 -0.15325661 0.05153098 0.11539145
-0.06048425 -0.033206895 0.053008776 -0.07069972 0.15334104 0.19003367 -0.021035928 0.059100434
0.18742295 0.022760363 -0.091807775 -0.024171624 0.14710243 -0.21590962 0.05057968 0.08778495
0.11839322 -0.1481854 -0.068265505 0.11792688 -0.03653004 0.056133088 0.008490696 -0.021220636
00000000: fffb f13d 7ad3 a93d ff34 273e 988f 8bbd
00000010: a9eb 77be d585 b9bd bc7d bbbb 0c91 90bd
00000020: d7bc 9d3c 5cdf 4a3e 64e6 933c bcc9 f4bd
00000030: 52a7 c2bc 1ecc 93bc afd4 71bd 66c7 ee3d
00000040: cce3 a33d 8927 9bbd 7d1c e33d aee8 a8bd
00000050: 9a9c d23c 7d9e 933d d356 79be 0f1e ce3d
00000060: fe1d 823d 9c42 02b9 9fad d1bd 2685 393e
00000070: 68e2 bc3d 08a8 14be 0124 4ebe f3f9 2ebe
00000080: d698 7c3e c9fe b73c de79 1fbe c1f7 2a3e
00000090: 7cae 273e d711 97bc 0d61 7e3d 1765 76bc
000000a0: a8cb 9cbe e2a4 8d3c 5f95 f23d 75e3 f63d
000000b0: 8a8a 36be a56c 8c3d 0a7e abbd 1434 e0bd
000000c0: 5c6c 8fbd 4e8d ad3d 248d 9b3d 51c9 8dbd
000000d0: df34 4abd 71ec 103e 23be 223e 92ac 35bd
000000e0: e41f cc3d 5dd1 633c 47be 033e 2d55 643e
000000f0: 8a37 d23c af5e c1bc 924a 3bbe 0c9c 863d
00000100: 456d 5bbe 2db9 9abd 417b b23c b3e9 9ebc
00000110: f105 e23d dc32 c7bd 56cf 16be 4017 31bd
00000120: 9a1b 3e3b b46f 4dbd 9b6c 54bd b4b9 793d
00000130: a46a 52be ad01 fdbd 97fa 853d bd4e 29be
00000140: b9cd d63d bd62 1bbe 9ae0 6d3d 600b 943e
00000150: 66c2 d9bd 32ed 9dbd 783f 09bc 1d1b 4cbe
00000160: 50f1 553d 764b 533d f4ab 6fbe 2b11 993d
00000170: b1fc b3bd 0c40 473d d2de 51be 87f3 31bd
00000180: 1d35 f13d 823c 2c3a bb43 6b3e d65f 11be
00000190: c1c2 1a3e a644 a9bd 454e 96bd 87f2 e2bd
000001a0: 76d8 413e af7b 113c 8bfd 4b3e 2649 f63c
000001b0: 9922 bebc 86ba 903c aff9 85bc 3015 8c3e
000001c0: 223d 5c3d 6c9e a7be a6aa 153e efdd 2d3e
000001d0: 96b8 a33d 266d 05bd 1539 933c 0845 e3bc
000001e0: c3c2 343e bcd8 2fbd 4bf1 bfbc c44e ebbd
000001f0: e701 4bbd 2f98 0abe ac73 c5bd e318 a8bd
00000200: 7ccf 21bd 10e4 723e 14e6 343e 033f 5fbe
00000210: 9300 403e 4358 56bd ff97 033a b1d4 d9bc
00000220: 3a65 313e 0c92 90bc e3aa 153e ba51 2dbe
00000230: 513e 483e 2d8c 8ebd 8cf6 adbc 3da6 31be
00000240: 8b97 b8bd 7227 f7bd 8cda 553d 99f6 1d3e
00000250: 0832 d1bd 2aa5 743d 3a49 9e3d a794 393e
00000260: 4a32 85be 8b93 77bd 5003 53be 658c 81bd
00000270: 0f5e 6ebd 8c85 2d3d e057 063e d807 afbb
00000280: 83c7 853e bbc9 70bc cc5c 01be 14f7 9c3c
00000290: dbf2 173e 5fd0 4dbe 01d1 debd a14b 5ebd
000002a0: a1ef bdbd fb8b 86be 71da 3d3e 7bca bb3d
000002b0: a396 e8bc d9ba 6dbd ca9c dc3d b697 0f3e
000002c0: f95a 3f3d 12f1 fbbd e238 6cbe 3731 e9bd
000002d0: 7a17 b83d d2b2 2a3e 949d c13c 50c7 f8bd
000002e0: e3a0 12be 9c10 83bc a09d b13d 3293 533d
000002f0: f73b 1a3e 3189 49be 7f2c c6ba 6a98 e53d
00000300: c9b6 e0bd fd8a 073e a0ea 11be 20bf 13be
00000310: 6d40 18be 977f aa3c 9422 553e 83ee 003c
00000320: 747d c53d 3643 6f3e c960 fcbd b547 4b3e
00000330: ba72 4d3e 0bd1 a43d b03f 203d 2d4e 03be
00000340: b4c0 44be ec0b 063d e4e1 38bd 368d 13be
00000350: ae68 44be 4145 dc3d 3010 86bb 8688 eb3d
00000360: 9010 acbd 11b3 37be 1b1d b2bd ae4d 0dbe
00000370: cd0e 6fbe a951 08be 8062 07be 8f2d 0f3e
00000380: ba64 3d3e 7765 a53d 2631 d13d b2e6 e8bd
00000390: 1b3a b93d 4def 1cbe 2612 533d 5a52 ec3d
000003a0: 55be 77bd f403 08bd bb1f 593d 04cb 90bd
000003b0: 6f05 1d3e 3098 423e 8a53 acbc 4c13 723d
000003c0: cdeb 3f3e f173 ba3c b705 bcbd 9203 c6bc
000003d0: 05a2 163e 6917 5dbe a32c 4f3d 99c8 b33d
000003e0: 2578 f23d eabd 17be c9ce 8bbd a683 f13d
000003f0: 86a0 15bd cfeb 653d 8f1c 0b3c e6d6 adbc

bn.weight f4 [16]
1.0531495 1.0845573 0.9528109 0.99939054 0.9114855 0.94529593 0.94754773 0.9897033
0.9913759 1.071377 0.98148906 0.8730509 0.7736468 0.9289551 0.881489 1.0258571
00000000: 9acd 863f c6d2 8a3f 6aeb 733f 0fd8 7f3f
00000010: 1d57 693f eafe 713f 7d92 723f 325d 7d3f
00000020: d0ca 7d3f e222 893f de42 7b3f 4480 5f3f
00000030: b70d 463f 00d0 6d3f 43a9 613f 494f 833f

bn.bias f4 [16]
0.31307632 0.5610019 -0.0018130007 0.19186994 0.010181977 0.37400702 -0.06426512 0.13938814
0.20591262 0.17719814 0.08687458 -0.23535575 0.108581096 -0.005829222 -0.12070922 0.39909583
00000000: 8a4b a03e d29d 0f3f 35a2 edba 8e79 443e
00000010: 4fd2 263c d97d bf3e 6e9d 83bd c4bb 0e3e
00000020: c2da 523e 6e73 353e 4deb b13d 1901 71be
00000030: c45f de3d 0f03 bfbb 6536 f7bd 4a56 cc3e

bn.running_mean f4 [16]
-0.011858259 -0.0015405745 -0.13416068 -0.023482105 0.102476455 0.011364608 -0.16354541 -0.003418934
-0.03988591 0.014926394 -0.06310158 -0.16216977 0.1752754 -0.20403498 0.31520846 -0.012054689
00000000: 2549 42bc 1aed c9ba 6b61 09be 8b5d c0bc
00000010: 2ddf d13d 9f32 3a3c 7378 27be 3210 60bb
00000020: 685f 23bd d68d 743c 673b 81bd d50f 26be
00000030: 657b 333e 8cee 50be 0163 a13e 0881 45bc

bn.running_var f4 [16]
0.011908074 0.004379674 0.017869934 0.020958502 0.02843399 0.00424436 0.021289727 0.006094721
0.013700319 0.02025148 0.012497041 0.04575708 0.020776035 0.031103611 0.047043316 0.0038186356
00000000: 151a 433c 5e83 8f3b f863 923c 2ab1 ab3c
00000010: 66ee e83c 4614 8b3b cb67 ae3c 3ab6 c73b
00000020: 4e77 603c 6fe6 a53c 64c0 4c3c c76b 3b3d
00000030: 8132 aa3c 00cd fe3c 7eb0 403d 1342 7a3b

layer1.0.conv1.weight f4 [16, 16, 3, 3]
0.042091664 0.05926268 0.020824328 -0.07563431 0.11740678 0.099063784 -0.018122543 -0.04911871
-0.126442 0.15922569 0.0035616485 -0.19780576 -0.0971076 0.09282961 -0.031680822 0.010866168
0.0984113 -0.18074706 0.051561993 0.13570248 0.13163713 0.010928117 0.035359334 0.03027917
0.029700566 0.05955188 -0.044085428 -0.055690948 -0.14386803 -0.15100099 -0.04484134 -0.047443148
-0.092655405 0.049054764 -0.088428915 0.029851368 0.016282992 0.03532276 0.015477667 -0.023505814
-0.039151445 -0.004504653 -0.09515836 -0.1306057 -0.0059780884 0.20757422 0.08574136 -0.016615491
-0.17362656 -0.09707616 -0.17711571 -0.05537167 -0.1397574 0.024013137 0.07743663 0.062569186
0.08598326 0.09107182 -0.0033109158 -0.096300155 0.017209625 0.040155716 0.026152851 -0.075200565
-0.020468181 0.013724385 0.03687931 0.036140215 -0.085042104 -0.066024475 0.102521904 0.020597734
0.09859305 -0.0026547806 0.008343025 0.06337852 0.06474673 -0.034152184 0.08170078 0.07454982
0.023005644 0.0782859 -0.11840246 0.06982579 0.12764369 -0.120720506 -0.049316663 0.0456598
-0.146571 -0.10477263 -0.07247651 -0.004380255 0.046531603 -0.04818216 -0.013724058 0.019397302
-0.11067105 0.014796227 -0.10872306 0.03187852 -0.010664828 0.02897724 0.009070668 -0.099874504
0.07420629 0.07881531 -0.015887722 -0.06355176 0.11552301 0.008900333 0.076206 -0.046623882
0.06420161 0.09080584 0.029235233 0.0014534263 0.07527716 0.058309235 -0.12297201 -0.036559574
-0.023397403 0.01285438 -0.06637974 0.015554908 0.06713064 0.021796234 0.038803276 0.007715021
0.08790872 0.026285041 0.09955772 -0.08633987 -0.10443266 0.046197686 0.029926794 0.038493328
0.13108 -0.15886113 0.15921453 0.043308046 -0.09070478 -0.02715252 -0.071948096 -0.10511823
0.023253707 0.017480455 0.07875664 -0.046368726 -0.11783645 0.07149098 0.09811357 0.0814103
0.081758454 0.04395797 -0.17383525 -0.094920404 0.09930604 -0.2502261 0.044530574 0.08197449
0.11849563 0.12543948 -0.02653962 -0.07501143 0.016340524 0.17475486 -0.0870047 -0.00023748053
-0.015896996 -0.084913716 0.005644565 -0.08466412 0.08832706 -0.10560855 -0.11283704 -0.040337287
-0.03354672 0.09900025 0.042528108 -0.1227131 0.018439855 -0.033219915 0.076237105 0.050884496
0.008326753 -0.03501462 0.04687138 -0.05814767 -0.095404014 -0.015671652 0.10757415 -0.11175856
-0.07321658 -0.10146121 0.011192276 0.010543237 -0.0513515 -0.0960538 -0.057803206 0.06201854
0.037592635 0.085145764 0.11183228 -0.012363222 0.012798911 0.043906372 0.07199083 0.035043027
-0.058492117 -0.011472446 0.023183119 -0.09028126 -0.01585327 0.04528108 -0.119864225 0.061205562
0.056870908 -0.039611068 -0.0048509985 0.07028877 -0.0067312135 0.057357043 -0.024139427 -0.0053302413
-0.02910265 0.020630037 -0.08678814 -0.13033961 0.19699371 0.106255025 0.0654919 -0.096322335
0.008457309 -0.1832109 -0.039579343 0.093007974 -0.1781937 0.05925018 0.038503375 -0.07701667
0.094447985 0.05984755 -0.10054125 -0.12741962 0.027914671 -0.111417286 0.013123654 0.16331683
0.03022197 0.033819098 0.015563179 0.02654393 0.08307999 0.0005424353 -0.058635045 -0.012318609
00000000: 4f68 2c3d 6dbd 723d c897 aa3c 29e6 9abd
00000010: f772 f03d f4e1 ca3d ba75 94bc b330 49bd
00000020: 037a 01be 0f0c 233e 8c6a 693b 988d 4abe
00000030: 59e0 c6bd 731d be3d c0c3 01bd 0308 323c
00000040: dd8b c93d c215 39be ab32 533d 97f5 0a3e
00000050: e2cb 063e d80b 333c f3d4 103d 060c f83c
00000060: 9a4e f33c acec 733d ec92 34bd 311c 64bd
00000070: 2452 13be 01a0 1abe 8eab 37bd bf53 42bd
00000080: 1ec2 bdbd a6ed 483d 381a b5bd db8a f43c
00000090: e963 853c 99ae 103d 0a96 7d3c 448f c0bc
000000a0: 445d 20bd c59b 93bb 63e2 c2bd 80bd 05be
000000b0: d7e3 c3bb 568e 543e 2b99 af3d 361d 88bc
000000c0: 29cb 31be decf c6bd d25d 35be 67cd 62bd
000000d0: 901c 0fbe 33b7 c43c 1997 9e3d 4624 803d
000000e0: fe17 b03d dd83 ba3d f3fb 58bb 0439 c5bd
000000f0: 33fb 8c3c 527a 243d 813e d63c c102 9abd
00000100: e3ac a7bc 3edc 603c c20e 173d c307 143d
00000110: 8e2a aebd d737 87bd 01f7 d13d 94bc a83c
00000120: 27eb c93d d4fb 2dbb 2fb1 083c 99cc 813d
00000130: ef99 843d 29e3 0bbd bd52 a73d 93ad 983d
00000140: 5576 bc3c 5c54 a03d fd7c f2bd d300 8f3d
00000150: 07b5 023e 503c f7bd 4500 4abd c505 3b3d
00000160: b516 16be 0893 d6bd 916e 94bd 3e88 8fbb
00000170: ec97 3e3d a85a 45bd dfda 60bc 17e7 9e3c
00000180: 81a7 e2bd e06b 723c 32aa debd 0d93 023d
00000190: 88bb 2ebc ad61 ed3c 249d 143c 018b ccbd
000001a0: 78f9 973d ec69 a13d f826 82bc 6d27 82bd
000001b0: 5497 ec3d b4d2 113c e411 9c3d aff8 3ebd
000001c0: 227c 833d 6af8 b93d ba7e ef3c e580 be3a
000001d0: e92a 9a3d aad5 6e3d c0d8 fbbd 7ebf 15bd
000001e0: e9ab bfbc 2d9b 523c 1af2 87bd 03da 7e3c
000001f0: ca7b 893d 048e b23c 2ff0 1e3d 49ce fc3b
00000200: 7d09 b43d ba53 d73c ebe4 cb3d f5d2 b0bd
00000210: cae0 d5bd c939 3d3d 0929 f53c 2eab 1d3d
00000220: d639 063e 7eac 22be 2209 233e c763 313d
00000230: 6dc3 b9bd f66e debc 8659 93bd 3a48 d7bd
00000240: 8f7e be3c 2c33 8f3c 294b a13d 22ed 3dbd
00000250: 3d54 f1bd dd69 923d c4ef c83d 72ba a63d
00000260: fa70 a73d 460d 343d de01 32be a165 c2bd
00000270: f760 cb3d a31d 80be b165 363d 3ee2 a73d
00000280: d6ad f23d 3573 003e 9e69 d9bc 989f 99bd
00000290: 90dc 853c f0f2 323e 852f b2bd 3204 79b9
000002a0: 6b3a 82bc 3ee7 adbd 0bf6 b83b 6264 adbd
000002b0: d1e4 b43d 4c49 d8bd 1b17 e7bd b638 25bd
000002c0: 4968 09bd a5c0 ca3d f431 2e3d 0151 fbbd
000002d0: 2e0f 973c 9b11 08bd 3322 9c3d 436c 503d
000002e0: ef6c 083c 7d6b 0fbd 34fc 3f3d 402c 6ebd
000002f0: 2e63 c3bd d661 80bc d64f dc3d ace1 e4bd
00000300: 93f2 95bd e5ca cfbd cf5f 373c 8bbd 2c3c
00000310: f355 52bd dbb7 c4bd 0ec3 6cbd 2707 7e3d
00000320: bcfa 193d e760 ae3d 5308 e53d 1d8f 4abc
00000330: 86b2 513c 2bd7 333d ee6f 933d 4789 0f3d
00000340: 6e95 6fbd edf6 3bbc 86ea bd3c 62e5 b8bd
00000350: b8de 81bc a778 393d 607b f5bd afb2 7a3d
00000360: 78f1 683d 373f 22bd 20f5 9ebb 8ff3 8f3d
00000370: 8391 dcbb 38ef 6a3d 0cc0 c5bc 4ea9 aebb
00000380: ae68 eebc 5300 a93c fbbd b1bd bf77 05be
00000390: b8b8 493e 3c9c d93d 9e20 863d a544 c5bd
000003a0: 8690 0a3c a39b 3bbe f31d 22bd f77a be3d
000003b0: 6978 36be 51b0 723d b7b5 1d3d eaba 9dbd
000003c0: f26d c13d b422 753d 92e8 cdbd 4a7a 02be
000003d0: 4fad e43c bf2e e4bd 9804 573c 873c 273e
000003e0: 1194 f73c e585 0a3d b4fc 7e3c a872 d93c
000003f0: d825 aa3d 3732 0e3a 4d2b 70bd fed3 49bc

layer1.0.bn1.weight f4 [16]
0.977886 1.048608 0.99533606 1.0217687 1.0847528 0.8768309 1.0313182 1.0960134
0.97465754 1.1027566 1.020547 0.96820515 0.91942024 1.0509267 0.8729528 0.93502223
00000000: bd56 7a3f c938 863f 58ce 7e3f 51c9 823f
00000010: 2ed9 8a3f fd77 603f 3c02 843f 2b4a 8c3f
00000020: 2883 793f 2127 8d3f 49a1 823f 4bdc 773f
00000030: 205f 6b3f c484 863f d679 5f3f 9e5d 6f3f

layer1.0.bn1.bias f4 [16]
0.023294568 -0.118206926 -0.059508186 -0.09014075 0.11423589 -0.0912579 0.23174325 0.078605264
0.13866855 0.19482923 0.014087265 0.3389011 -0.12020167 -0.041678354 -0.10309569 -0.05082618
00000000: 40d4 be3c 7916 f2bd dbbe 73bd b79b b8bd
00000010: 82f4 e93d 6ce5 babd 1a4e 6d3e ccfb a03d
00000020: 21ff 0d3e 5081 473e 46ce 663c 7284 ad3e
00000030: 4b2c f6bd ecb6 2abd d523 d3bd 1d2f 50bd

layer1.0.bn1.running_mean f4 [16]
-0.23088972 0.1670155 -0.9716145 -0.63427305 -0.3649058 -0.058633458 -0.37282127 -0.8885021
-1.1488644 -0.44327098 -0.6782501 -0.57658124 1.175173 -0.26622286 -0.673077 -0.3864375
00000000: 5b6e 6cbe 1c06 2b3e babb 78bf b85f 22bf
00000010: efd4 babe a329 70bd 6ee2 bebe e074 63bf
00000020: fd0d 93bf 6af4 e2be cca1 2dbf d49a 13bf
00000030: 126c 963f 5d4e 88be c64e 2cbf 23db c5be

layer1.0.bn1.running_var f4 [16]
0.84426624 0.7208229 0.8216108 0.4408993 0.7307174 0.8818665 0.5076173 0.8104294
1.5792081 0.82351774 0.44554305 0.504253 0.95986223 0.6040527 0.5610268 0.71301174
00000000: d521 583f d987 383f 1655 523f 8ebd e13e
00000010: 4c10 3b3f 01c2 613f 35f3 013f 4d78 4f3f
00000020: 7e23 ca3f 0fd2 523f 381e e43e b916 013f
00000030: 88b9 753f 33a3 1a3f 749f 0f3f f087 363f

layer1.0.conv2.weight f4 [16, 16, 3, 3]
0.014617054 0.03797841 -0.18375498 0.092737585 0.14705315 0.027449999 -0.018896211 0.20402917
0.024094723 0.012011287 -0.19286309 -0.17149135 0.07106111 -0.11385217 -0.035663947 0.020320367
-0.017086884 -0.020582898 0.025417496 0.050527446 -0.020931464 -0.034008536 0.040341426 -0.05386926
-0.024911202 -0.07685654 0.04379469 0.009668392 -0.08878238 -0.04980109 -0.027467923 -0.11413905
0.007856885 0.0211886 -0.05293465 -0.049260136 0.051666588 -0.06389335 -0.05535874 -0.06798023
-0.020806894 0.061349913 -0.13820958 -0.02698098 -0.024831947 0.14833349 -0.105251744 -0.09107428
0.058936033 -0.03633565 -0.12082983 -0.10739234 0.0018125859 -0.16396303 0.12062509 -0.034104317
-0.048170958 -0.07077507 0.11213961 0.07162313 0.038913194 0.026762176 -0.06589273 0.012576545
-0.052207008 0.03855547 0.0097973095 -0.07966355 0.050120164 -0.01645435 -0.018768806 0.057643086
0.08693424 0.105868116 0.2172939 -0.012635218 0.0015447092 0.15090148 -0.038842697 -0.036057666
0.1227172 0.13486257 0.08444631 -0.10363977 0.09212314 0.034950104 -0.036634732 0.13010824
0.02045517 -0.044589084 0.076082006 -0.11535262 -0.03501225 0.024923466 -0.035143957 -0.13773733
0.0830377 0.14957441 -0.059186477 0.032992113 -0.030935159 0.07630163 -0.034373198 0.10763079
0.041739814 0.025036275 -0.09187711 -0.04543962 -0.0041755913 -0.07145142 0.039432786 -0.07831012
-0.07839716 0.008105883 -0.03845477 -0.03375368 -0.12050681 0.12614255 -0.045390688 0.057686403
-0.012945708 -0.1548138 0.0077057607 -0.006167268 -0.11578656 -0.037855864 -0.047689676 -0.04583522
0.030556861 -0.052441005 0.015124867 -0.078785695 0.032923494 0.02357316 -0.054451987 0.04580085
0.123652734 0.07692362 0.018728854 0.027023181 -0.021070268 -0.16630287 -0.16562456 -0.105147555
-0.027080733 0.020893617 0.038277157 0.003972175 0.112500794 -0.22055325 0.021274205 -0.08406161
0.0029152355 -0.15033379 0.016658468 0.0024259875 0.12667905 -0.027726403 0.021393746 -0.0975776
0.040257264 -0.044850893 -0.057625867 0.11300186 0.054019768 0.028252715 0.17029907 -0.01078873
0.10794869 -0.030592132 -0.018436218 -0.06170007 0.09265681 -0.0022404133 0.063326925 -0.03333514
-0.07542548 -0.07810984 -0.040794738 0.104140334 -0.053894777 0.11143291 -0.14170426 -0.045809254
-0.16735518 0.09771459 0.06007445 0.24311401 -0.15831815 0.0789826 -0.050343033 0.009351988
-0.058809068 -0.11268146 0.0996826 -0.049985223 0.071485184 -0.07076152 0.06953035 -0.07595634
0.015557523 -0.03618728 -0.09657753 0.02460488 0.011801596 0.018919125 -0.02136437 0.036878187
-0.2097368 0.13263193 -0.16002658 0.11206192 0.11425067 0.08070136 0.059574746 -0.14496776
0.016166493 0.047558445 -0.13135348 0.10699114 -0.04882362 -0.0720138 0.00044087513 -0.09227671
0.012386713 -0.0044706664 0.12972109 -0.101635054 -0.028394222 -0.01871128 -0.16066466 -0.016715504
-0.021590095 0.07225865 0.06835945 -0.047136378 0.03936893 -0.020660814 0.054519586 0.0963084
0.013206547 -0.087989554 -0.009417103 0.03885764 0.019622212 -0.0854298 -0.21016686 0.087182224
0.028334359 0.048264325 0.15828393 -0.11975437 0.0819827 -0.04147253 0.0034612764 -0.009282895
00000000: 5e7c 6f3c 408f 1b3d 442a 3cbe 34ed bd3d
00000010: 1a95 163e d2de e03c 3acc 9abc 06ed 503e
00000020: 4c62 c53c fdca 443c e77d 45be 6e9b 2fbe
00000030: 7d88 913d 542b e9bd 5c14 12bd e676 a63c
00000040: cbf9 8bbc 779d a8bc 5a38 d03c def5 4e3d
00000050: 7678 abbc 894c 0bbd 0d3d 253d 03a6 5cbd
00000060: 9412 ccbc f666 9dbd 1062 333d 2d68 1e3c
00000070: 89d3 b5bd 3afc 4bbd 6904 e1bc bcc1 e9bd
00000080: 2aba 003c b793 ad3c 01d2 58bd ffc4 49bd
00000090: 58a0 533d 84da 82bd d9bf 62bd 3839 8bbd
000000a0: 3873 aabc 0c4a 7b3d d086 0dbe 3707 ddbc
000000b0: 5e6c cbbc bce4 173e 3a8e d7bd 2785 babd
000000c0: e966 713d b1d4 14bd a175 f7bd 84f0 dbbd
000000d0: 4a94 ed3a ede5 27be 4a0a f73d f8b0 0bbd
000000e0: e94e 45bd 85f2 90bd 74a9 e53d 26af 923d
000000f0: 7163 1f3d 5a3c db3c c5f2 86bd da0d 4e3c
00000100: 04d7 55bd 57ec 1d3d e584 203c a526 a3bd
00000110: cd4a 4d3d 46cb 86bc 0ac1 99bc 281b 6c3d
00000120: 940a b23d 62d1 d83d 4b82 5e3e f203 4fbc
00000130: d777 ca3a eb85 1a3e 8519 1fbd 34b1 13bd
00000140: 2853 fb3d 6a19 0a3e 30f2 ac3d 1641 d4bd
00000150: 0fab bc3d d727 0f3d 4d0e 16bd 183b 053e
00000160: 9a91 a73c 0ba3 36bd e2d0 9b3d ff3d ecbd
00000170: 0169 0fbd 4c2c cc3c 1cf3 0fbd 040b 0dbe
00000180: ab0f aa3d 092a 193e 856d 72bd bd22 073d
00000190: bb6b fdbc 0744 9c3d e9ca 0cbd 886d dc3d
000001a0: 5ef7 2a3d e018 cd3c 112a bcbd e51e 3abd
000001b0: 66d3 88bb 1f55 92bd 4684 213d 0e61 a0bd
000001c0: b18e a0bd 8ace 043c c082 1dbd 4c41 0abd
000001d0: 46cc f6bd 832b 013e 96eb 39bd 9448 6c3d
000001e0: 3c1a 54bc 8287 1ebe 9b80 fc3b cb16 cabb
000001f0: 8121 edbd c00e 1bbd 4056 43bd b6bd 3bbd
00000200: 6252 fa3c 61cc 56bd 4ace 773c 655a a1bd
00000210: c9da 063d 801c c13c 0c09 5fbd ac99 3b3d
00000220: a53d fd3d 228a 9d3d 416d 993c b85f dd3c
00000230: 8e9b acbc 4d4b 2abe 7c99 29be 9a57 d7bd
00000240: 6ad8 ddbc 1729 ab3c 82c8 1c3d 0529 823b
00000250: d166 e63d b6d8 61be 3e47 ae3c 7e28 acbd
00000260: 890d 3f3b 1af1 19be 5777 883c 51fd 1e3b
00000270: 27b8 013e 7b22 e3bc f041 af3c c4d6 c7bd
00000280: cde4 243d 92b5 37bd 1a09 6cbd 856d e73d
00000290: d543 5d3d 3d72 e73c e162 2e3e 37c3 30bc
000002a0: 3414 dd3d 5a9c fabc 8d07 97bc 36b9 7cbd
000002b0: dbc2 bd3d e6d3 12bb 8cb1 813d 6e8a 08bd
000002c0: ad78 9abd 0df8 9fbd 6218 27bd 8747 d53d
000002d0: c5c0 5cbd f036 e43d ec1a 11be 7ca2 3bbd
000002e0: 285f 2bbe 961e c83d a010 763d e1f2 783e
000002f0: 271e 22be a1c1 a13d 7f34 4ebd 1539 193c
00000300: c7e1 70bd 8ac5 e6bd 6426 cc3d 4ebd 4cbd
00000310: d366 923d 6aeb 90bd ee65 8e3d ff8e 9bbd
00000320: fbe4 7e3c 1d39 14bd 71ca c5bd 2c90 c93c
00000330: 7b5b 413c 48fc 9a3c 5504 afbc 950d 173d
00000340: 3ec5 56be aad0 073e 02de 23be b880 e53d
00000350: 41fc e93d c146 a53d a604 743d 6e72 14be
00000360: 986f 843c a5cc 423d 8781 06be 2c1e db3d
00000370: 47fb 47bd f97b 93bd 4225 e739 92fb bcbd
00000380: a4f1 4a3c ab7e 92bb 9bd5 043e 0a26 d0bd
00000390: 009b e8bc 6648 99bc 4785 24be f4ee 88bc
000003a0: b6dd b0bc 58fc 933d 0a00 8c3d 1312 41bd
000003b0: 5141 213d de40 a9bc ee4f 5f3d 573d c53d
000003c0: 4660 583c de33 b4bd 314a 1abc 3029 1f3d
000003d0: c3be a03c d2f5 aebd fb35 57be 988c b23d
000003e0: 751d e83c d0b0 453d 2f15 223e c741 f5bd
000003f0: 8ce6 a73d 1adf 29bd 95d6 623b 4917 18bc

layer1.0.bn2.weight f4 [16]
0.948481 1.1923003 0.97663563 0.9434187 1.0372506 0.9730707 1.0623604 0.85412866
1.0236377 1.0348536 0.8382793 0.94472116 1.1067824 1.0876595 1.0840818 0.9824765
00000000: a7cf 723f 4c9d 983f cb04 7a3f e383 713f
00000010: a1c4 843f 291b 793f 6dfb 873f 2da8 5a3f
00000020: 8f06 833f 1576 843f 7999 563f 3fd9 713f
00000030: 0cab 8d3f 6d38 8b3f 31c3 8a3f 9483 7b3f

layer1.0.bn2.bias f4 [16]
0.1427325 -0.23066963 -0.062053148 -0.1426683 0.068790175 -0.08391973 0.1652025 -0.031511374
0.06394181 -0.030191386 -0.010059828 -0.06552095 -0.016831651 0.07577084 0.13136154 0.20036569
00000000: 7828 123e a934 6cbe 712b 7ebd a417 12be
00000010: dde1 8c3d 1bde abbd d82a 293e 1212 01bd
00000020: ecf3 823d ed53 f7bc fad1 24bc d92f 86bd
00000030: 88e2 89bc be2d 9b3d a483 063e aa2c 4d3e

layer1.0.bn2.running_mean f4 [16]
-0.08984082 -0.037516043 -0.7396417 0.019600797 -0.9276598 0.5020832 -0.5593743 0.13965492
-0.2772343 -0.6170823 0.8078048 -0.31524175 -1.0861521 -0.33549097 -0.5932838 -0.0876877
00000000: 77fe b7bd 6caa 19bd 2959 3dbf da91 a03c
00000010: 1d7b 6dbf 8688 003f 2733 0fbf b301 0f3e
00000020: a7f1 8dbe 1bf9 1dbf 4ccc 4e3f 5e67 a1be
00000030: 0807 8bbf 79c5 abbe 72e1 17bf 9c95 b3bd

layer1.0.bn2.running_var f4 [16]
0.76474345 0.424378 0.6418989 0.410278 0.57502735 0.5764741 0.44340822 0.48212805
0.5462277 0.7046187 0.5368647 0.5782789 0.8032805 0.59018624 0.59322834 0.5727413
00000000: 3ac6 433f 1348 d93e 7c53 243f f50f d23e
00000010: fe34 133f ce93 133f 6706 e33e 7dd9 f63e
00000020: 94d5 0b3f e461 343f f76f 093f 160a 143f
00000030: caa3 4d3f 7216 173f d0dd 173f 2d9f 123f

layer1.1.conv1.weight f4 [16, 16, 3, 3]
-0.057842314 0.015468134 -0.03817325 -0.10645612 -0.042957116 0.045798488 0.026355503 0.14113168
0.18634541 0.014272591 -0.02207941 -0.03763877 -0.022364894 -0.031822596 -0.07695509 0.028133426
0.05287372 -0.044250246 0.12979539 0.05824848 0.152737 0.04270518 0.08166825 0.13665532
-0.08545365 0.08909604 0.03005256 -0.028357597 -0.008993327 -0.03836751 0.0657026 -0.00077371893
0.10886618 0.09304105 0.014049417 0.115514204 -0.049688768 -0.0008898856 -0.0640266 -0.04411814
-0.10093811 -0.032540046 0.09299217 0.11291119 0.14579217 -0.1248805 -0.059797622 -0.1131391
-0.04631974 0.054869395 0.06087852 -0.22710663 -0.1226012 -0.026236778 -0.043014556 -0.03100543
0.08275666 -0.020311933 -0.04248264 0.09541873 -0.056282315 -0.05044484 0.012485995 0.18910666
0.070463076 -0.010812198 0.14238669 0.032399077 0.021121707 -0.018923668 0.057828486 0.010227465
0.028325569 -0.009645089 0.10099696 -0.003604262 -0.009887696 -0.10382756 -0.039949037 0.0649117
-0.12971827 0.0017836789 0.047623627 0.062474053 -0.042015225 -0.008476378 -0.033681177 0.095584996
-0.19001323 -0.16697264 0.019225322 0.025451621 0.0020656479 0.07552729 0.1659389 0.054065462
-0.06033962 0.097879514 -0.019026741 0.01213771 0.05423067 0.013357841 -0.11510708 -0.14279787
-0.0537664 -0.12455928 -0.1845089 -0.024196727 -0.074668065 0.014091447 0.036300767 0.053558454
-0.027116528 0.1253863 0.0031293563 -0.010992836 0.05397639 -0.008697297 -0.10678067 -0.106757805
-0.022153167 0.02111829 0.12068879 -0.038472716 0.03657089 0.13724026 0.07746213 0.16004251
0.046757545 0.005763876 0.038075205 0.049028233 0.08588762 -0.09695151 -0.03534573 0.0030570475
-0.0069684885 -0.12613772 -0.06589033 0.09849302 -0.14377855 -0.016249951 0.08649606 -0.08788297
0.0049149976 -0.067372 -0.22123426 0.023616752 0.068498775 -0.12961367 0.076963484 0.079961106
0.031094002 -0.11727679 0.07697801 0.015123825 -0.15063575 -0.103572175 0.0037584142 0.031180998
-0.107807726 -0.10322835 -0.01219459 0.03167608 0.08300358 -0.093689874 -0.043394156 -0.07196483
0.030250562 0.06314689 0.05457316 0.049795404 -0.04743194 -0.014688774 -0.022002434 0.011342769
0.058606815 -0.018668953 -0.04939947 -0.036248446 0.090994306 -0.028612552 -0.18162139 0.18327372
0.046778668 0.05707296 -0.046457075 0.027981486 -0.07627932 0.036723576 0.051145807 -0.10010581
0.055733915 0.19767068 0.08433808 -0.050582185 -0.08412111 0.003736342 -0.21503913 -0.036040023
0.096585564 -0.09682496 -0.13431352 0.06861598 -0.101396844 -0.11885423 0.019429138 -0.012147582
0.07188293 0.068389066 -0.08053579 -0.04459922 0.06344925 -0.02486884 -0.024710136 -0.08849828
0.042343922 0.14419115 -0.022523105 -0.099733554 0.15323009 0.07390016 -0.0035973885 -0.019814352
-0.021803811 -0.0028169064 -0.041812528 0.03254341 0.021916062 -0.06802829 0.064360134 0.038518302
-0.068680555 -0.02679388 0.00827345 -0.093324855 0.020656446 0.07055761 -0.10287176 -0.08501619
-0.03597255 -0.047487132 -0.07269275 -0.06666577 0.036120262 0.076752566 0.027614122 -0.028681075
-0.014936654 -0.02353026 -0.13409851 -0.06051639 0.072636776 0.017991554 -0.22731124 0.12531616
00000000: 10ec 6cbd 0e6e 7d3c 8e5b 1cbd ab05 dabd
00000010: cdf3 2fbd 3297 3b3d 7fe7 d73c d384 103e
00000020: 55d1 3e3e 96d7 693c e1df b4bc 1c2b 1abd
00000030: 9536 b7bc 6958 02bd a19a 9dbd 1278 e63c
00000040: 1d92 583d bf3f 35bd 15e9 043e f595 6e3d
00000050: 1767 1c3e a0eb 2e3d af41 a73d 5fef 0b3e
00000060: 5302 afbd fc77 b63d c930 f63c 314e e8bc
00000070: bf58 13bc 4027 1dbd 168f 863d 66d3 4aba
00000080: 3bf5 de3d 4e8c be3d 872f 663c b692 ec3d
00000090: 7386 4bbd 3647 69ba 6120 83bd 39b5 34bd
000000a0: a4b8 cebd b648 05bd ae72 be3d fb3d e73d
000000b0: 8b4a 153e 59c1 ffbd 5aee 74bd 79b5 e7bd
000000c0: c5b9 3dbd bbbe 603d c15b 793d a48e 68be
000000d0: 5716 fbbd 83ee d6bc 0830 30bd 19ff fdbc
000000e0: 537c a93d 3665 a6bc 4702 2ebd e56a c33d
000000f0: 4988 66bd 409f 4ebd 0f92 4c3c 2da5 413e
00000100: f24e 903d a525 31bc d1cd 113e e5b4 043d
00000110: 6e07 ad3c cf05 9bbc 90dd 6c3d 1991 273c
00000120: 060b e83c 6f06 1ebc 7fd7 ce3d 7b35 6cbb
00000130: 0100 22bc 8ba3 d4bd 9aa1 23bd 6df0 843d
00000140: ded4 04be 55ca e93a fe10 433d cbe4 7f3d
00000150: 2818 2cbd 82e0 0abc 46f5 09bd 11c2 c33d
00000160: d492 42be e0fa 2abe 6c7e 9d3c eb7f d03c
00000170: d25f 073b 0dae 9a3d e3eb 293e bf73 5d3d
00000180: ad26 77bd 0e75 c83d f8dd 9bbc 3fdd 463c
00000190: fb20 5e3d d9da 5a3c 43bd ebbd 9b39 12be
000001a0: 283a 5cbd f018 ffbd e7ef 3cbe 3738 c6bc
000001b0: 92eb 98bd d0df 663c 1db0 143d 1c60 5b3d
000001c0: 7b23 debc 4465 003e e315 4d3b 4c1b 34bc
000001d0: 5916 5d3d 1c7f 0ebc d3af dabd d6a3 dabd
000001e0: 8f7a b5bc 4400 ad3c af2b f73d 9195 1dbd
000001f0: 5ccb 153d b688 0c3e 77a4 9e3d 2fe2 233e
00000200: d784 3f3d e5de bc3b bff4 1b3d d4d1 483d
00000210: d9e5 af3d 838e c6bd afc6 10bd bf58 483b
00000220: eb57 e4bb 3f2a 01be 82f1 86bd b5b6 c93d
00000230: af3a 13be 9e1e 85bc d924 b13d fdfb b3bd
00000240: fd0d a13b 55fa 89bd 3c8b 62be eb77 c13c
00000250: 1649 8c3d 72b9 04be 089f 9d3d a6c2 a33d
00000260: d9b8 fe3c d02e f0bd a6a6 9d3d ebc9 773c
00000270: 4240 1abe a61d d4bd ba4f 763b 4b6f ff3c
00000280: 4cca dcbd 6369 d3bd d1cb 47bc c7be 013d
00000290: c8fd a93d 7ae0 bfbd 12be 31bd 4c62 93bd
000002a0: 07d0 f73c 2853 813d 1b88 5f3d 44f6 4b3d
000002b0: fe47 42bd 2fa9 70bc 733e b4bc 05d7 393c
000002c0: b30d 703d a2ef 98bc 1957 4abd 4079 14bd
000002d0: 395b ba3d df64 eabc f5fa 39be 1bac 3b3e
000002e0: fd9a 3f3d 56c5 693d c649 3ebd 6e39 e53c
000002f0: 5538 9cbd 766b 163d 447e 513d 4604 cdbd
00000300: 3f49 643d 2f6a 4a3e 71b9 ac3d 442f 4fbd
00000310: b047 acbd 6bdd 743b 3833 5cbe b49e 13bd
00000320: a7ce c53d 2a4c c6bd 7c89 09be 8986 8c3d
00000330: 26a9 cfbd d969 f3bd db29 9f3c a706 47bc
00000340: 5c37 933d 910f 8c3d f3ef a4bd acad 36bd
00000350: aef1 813d bdb9 cbbc e96c cabc 963e b5bd
00000360: d270 2d3d d8a6 133e 6082 b8bc 1b41 ccbd
00000370: 59e8 1c3e f858 973d 2ac2 6bbb b551 a2bc
00000380: e89d b2bc d99b 38bb 9d43 2bbd 3d4c 053d
00000390: 5089 b33c 6b52 8bbd 3fcf 833d 5ec5 1d3d
000003a0: 64a8 8cbd d77e dbbc 5d8d 073c 1a21 bfbd
000003b0: b537 a93c 8280 903d 6eae d2bd f81c aebd
000003c0: f457 13bd de81 42bd f0df 94bd 1088 88bd
000003d0: d7f2 133d 7330 9d3d 0337 e23c 93f4 eabc
000003e0: deb8 74bc 88c2 c0bc 1f51 09be 09e0 77bd
000003f0: 97c2 943d 0663 933c 47c4 68be e152 003e

layer1.1.bn1.weight f4 [16]
0.9133535 1.058144 0.9985767 0.9275351 0.9655079 1.0692677 1.0331035 0.9746988
0.951039 0.9287602 0.90808403 1.0724994 1.0319685 1.0322025 1.0911875 1.1066433
00000000: 89d1 693f 4371 873f b9a2 7f3f f172 6d3f
00000010: 872b 773f c4dd 883f bc3c 843f dc85 793f
00000020: 4b77 733f 3ac3 6d3f 3278 683f a947 893f
00000030: 8b17 843f 361f 843f 08ac 8b3f 7da6 8d3f

layer1.1.bn1.bias f4 [16]
-0.13299015 -0.14711185 -0.15612619 -0.088798 -0.20270589 -0.043128032 -0.09744463 -0.20249665
-0.08465282 -0.03570228 -0.15966487 -0.12334713 -0.0074388627 -0.021339605 -0.014087415 -0.10782234
00000000: 922e 08be 7da4 16be 8bdf 1fbe badb b5bd
00000010: 2292 4fbe 05a7 30bd 0d91 c7bd 485b 4fbe
00000020: 755e adbd 8e3c 12bd 307f 23be 6c9d fcbd
00000030: b4c1 f3bb 65d0 aebc e7ce 66bc f6d1 dcbd

layer1.1.bn1.running_mean f4 [16]
0.32173264 -1.1217886 -0.83081996 0.047913663 -1.546948 -0.1118869 -0.8179772 2.8125596
-1.0904137 -0.06165858 -0.44621128 -1.3980846 -1.0840331 -2.4630578 -1.4940923 -1.0708407
00000000: 24ba a43e c596 8fbf 9eb0 54bf 1e41 443d
00000010: 6402 c6bf f624 e5bd f466 51bf fa00 3440
00000020: ad92 8bbf b58d 7cbd ce75 e4be 70f4 b2bf
00000030: 99c1 8abf bda2 1dc0 6b3e bfbf 4f11 89bf

layer1.1.bn1.running_var f4 [16]
1.113582 2.7648008 1.8868879 1.5123595 1.5885099 2.876464 1.5530802 2.1291664
2.109157 1.1981235 2.5947707 2.202713 3.2271059 2.2886977 2.1853614 1.0261679
00000000: db89 8e3f 7ff2 3040 8b85 f13f ff94 c13f
00000010: 4b54 cb3f fc17 3840 55cb c63f 4344 0840
00000020: 6efc 0640 1c5c 993f b910 2640 40f9 0c40
00000030: e788 4e40 067a 1240 f6dc 0b40 7859 833f

layer1.1.conv2.weight f4 [16, 16, 3, 3]
-0.03468732 0.028127497 -0.15447676 0.070144095 0.04247996 -0.07862652 0.11871044 -0.044691272
-0.05777849 0.055217445 0.016204754 -0.028315192 0.031929336 0.014869745 0.10063178 -0.0057834843
-0.16336933 -0.06344524 -0.07123867 -0.122788996 -0.13003926 -0.11909068 -0.076897874 -0.076852605
-0.09563012 -0.021845601 0.08970304 0.07051597 -0.007362846 -0.013156389 0.103995785 0.058018986
-0.018307336 0.008962917 -0.01303269 -0.18598136 0.07529787 -0.056203704 -0.061452597 0.05491004
-0.08579759 -0.047824804 0.033978872 0.0070432858 0.005298006 -0.012455741 -0.09000873 0.14266498
-0.23055804 -0.24390633 -0.07902858 -0.20139061 -0.20710886 -0.16484098 0.02835382 -0.0070158057
-0.021308716 -0.06518656 -0.0825593 -0.13181375 -0.059001286 -0.05771637 -0.052610457 0.10755687
-0.0049447757 0.11758061 0.13440453 0.06914368 0.07462667 -0.06007027 -0.14731756 0.08015274
0.0491816 0.082885005 0.058349993 -0.04887617 -0.17432767 -0.0013980343 0.059946295 -0.082823746
0.06136226 0.07983128 0.07344593 -0.07734838 0.032292716 0.054930184 -0.100779444 -0.065256104
0.009003693 0.056004856 -0.05424833 -0.044626515 -0.07885008 0.022967173 0.02950028 -0.007763711
0.009744039 -0.05678356 -0.026375659 0.10186835 0.07655526 0.00706683 0.041369427 0.08320974
0.027857963 0.039523013 0.0492442 0.06002911 0.052795812 0.09933589 0.08327903 -0.13723983
-0.07082448 -0.04429833 0.04134723 0.015117533 0.011038812 0.029790832 -0.117638074 0.03328311
0.063849725 -0.049609214 0.06530438 0.051104125 0.08200274 0.04746702 0.076496854 -0.044083193
0.051632088 0.019706685 -0.11923991 -0.04108074 -0.01580244 -0.11221298 -0.012655724 0.080553256
1.2286044e-05 0.035705622 -0.10183667 -0.015738875 -0.09263243 -0.024198323 0.025176784 0.005883472
0.03386219 0.038419906 -0.12306649 -0.00522017 -0.11969954 0.068297245 0.012072908 -0.09387682
0.022525089 0.0038188212 -0.0042026304 -0.0046771704 -0.026280954 0.0084199 0.03796765 -0.10198663
-0.08979882 -0.10912238 -0.10428955 0.11792293 0.04142567 0.09651842 0.26507536 -0.03390754
0.13944674 0.054059293 0.01526764 -0.007871146 -0.06494503 0.07704707 -0.08611162 0.029769571
0.026072875 -0.05164283 0.10028843 -0.06718224 0.023485828 -0.13650376 -0.037802942 -0.1186461
-0.048603717 0.01981088 -0.0007138288 0.12626699 0.05038898 0.08389725 0.03620355 -0.092183515
-0.039625365 -0.057710283 0.03619778 -0.009501644 0.026795268 -0.07547189 0.06740247 -0.16084847
0.016510513 0.062399436 -0.060257718 -0.03205905 0.08757036 -0.0886599 0.007309423 0.06704061
-0.15253809 0.008240173 0.017509572 -0.13679011 0.021287173 0.12162699 -0.09493578 -0.012619308
-0.0070442655 0.042619728 -0.07073896 0.12119567 -0.12479982 0.036105145 -0.04482514 0.0846575
0.052725706 -0.03364133 0.15692432 -0.06225666 0.004128743 0.10563799 -0.12989011 0.056531265
-0.06211585 0.04773286 0.006679357 -0.017628271 -0.08922028 -0.015291884 0.110749885 -0.038175397
0.072688274 -0.06447302 -0.058597878 0.030296009 0.0065500936 0.261451 -0.10594791 0.29217488
0.100340806 0.015868599 -0.04205347 -0.020137819 -0.12475506 0.027034149 0.18579485 -0.041335426
00000000: 4b14 0ebd a36b e63c 282f 1ebe b5a7 8f3d
00000010: 77ff 2d3d f106 a1bd 761e f33d 320e 37bd
00000020: 23a9 6cbd b02b 623d d5bf 843c 43f5 e7bc
00000030: 56c8 023d 3ba0 733c 0918 ce3d 6283 bdbb
00000040: 4a4a 27be 94ef 81bd 94e5 91bd cc78 fbbd
00000050: 0329 05be d0e5 f3bd a27c 9dbd e664 9dbd
00000060: b9d9 c3bd 8cf5 b2bc 3ab6 b73d ad6a 903d
00000070: 0744 f1bb e58d 57bc befb d43d 51a5 6d3d
00000080: 44f9 95bc 33d9 123c 1087 55bc e671 3ebe
00000090: c535 9a3d db35 66bd b8b5 7bbd 5ae9 603d
000000a0: a6b6 afbd f1e3 43bd 6e2d 0b3d 5dcb e63b
000000b0: e59a ad3b 2a13 4cbc 7f56 b8bd c516 123e
000000c0: 6817 6cbe 95c2 79be bcd9 a1bd 5739 4ebe
000000d0: 5814 54be 13cc 28be 4546 e83c d8e4 e5bb
000000e0: 9e8f aebc 8880 85bd da14 a9bd 2ffa 06be
000000f0: 55ab 71bd 0068 6cbd 107e 57bd c746 dc3d
00000100: c907 a2bb 1ace f03d 57a1 093e 349b 8d3d
00000110: ded5 983d 3e0c 76bd 6ada 16be 1f27 a43d
00000120: a572 493d 9dbf a93d 6700 6f3d 6132 48bd
00000130: f482 32be 3f3e b7ba 3f8a 753d 7f9f a9bd
00000140: fe56 7b3d 957e a33d d26a 963d d468 9ebd
00000150: 5e45 043d 79fe 603d 7465 cebd fea4 85bd
00000160: 3a84 133c 5965 653d 7f33 5ebd 4bca 36bd
00000170: 277c a1bd a725 bc3c 92aa f13c ba66 febb
00000180: 76a5 1f3c e195 68bd c411 d8bc 5aa0 d03d
00000190: 01c9 9c3d de90 e73b fd72 293d de69 aa3d
000001a0: 6236 e43c e2e2 213d 49b4 493d 16e1 753d
000001b0: 6c40 583d 9d70 cb3d 328e aa3d 9988 0cbe
000001c0: 6d0c 91bd 2a72 35bd b75b 293d 87af 773c
000001d0: 22dc 343c e70b f43c 3bec f0bd df53 083d
000001e0: a5c3 823d 0833 4bbd 4ebe 853d 8f52 513d
000001f0: 0df1 a73d c76c 423d 62aa 9c3d 9490 34bd
00000200: 2b7c 533d ea6f a13c 0e34 f4bd 4744 28bd
00000210: 1e74 81bc ebcf e5bd f459 4fbc 1bf9 a43d
00000220: 2820 4e37 0f40 123d be8f d0bd d0ee 80bc
00000230: 12b6 bdbd 903b c6bc 8b3f ce3c 24ca c03b
00000240: 14b3 0a3d 315e 1d3d 490a fcbd f60d abbb
00000250: 0825 f5bd 6ddf 8b3d 72cd 453c 7d42 c0bd
00000260: 8986 b83c 3045 7a3b 38b6 89bb f342 99bb
00000270: 284b d7bc 9ff3 093c f783 1b3d 5ede d0bd
00000280: 72e8 b7bd 8e7b dfbd c295 d5bd 9481 f13d
00000290: f7ad 293d 73ab c53d f5b7 873e a2e2 0abd
000002a0: 20cb 0e3e 476d 5d3d 2025 7a3c fbf5 00bc
000002b0: e601 85bd dbca 9d3d 4a5b b0bd 51df f33c
000002c0: c896 d53c 6f87 53bd 0564 cd3d d896 89bd
000002d0: 5a65 c03c a4c7 0bbe 42d7 1abd bafc f2bd
000002e0: b114 47bd 6d4a a23c 3d20 3bba 224c 013e
000002f0: ad64 4e3d 52d2 ab3d 2c4a 143d b6ca bcbd
00000300: 354e 22bd 9e61 6cbd 2044 143d c9ac 1bbc
00000310: c081 db3c 0291 9abd 4e0a 8a3d 76b5 24be
00000320: 0e41 873c 8d96 7f3d ccd0 76bd 5a50 03bd
00000330: 1758 b33d 5293 b5bd e283 ef3b 964c 893d
00000340: f232 1cbe ca01 073c 3c70 8f3c b512 0cbe
00000350: 7062 ae3c 9217 f93d b16d c2bd 37c1 4ebc
00000360: 95d3 e6bb 0692 2e3d 96df 90bd 6f35 f83d
00000370: 0c97 ffbd fde2 133d 919a 37bd e960 ad3d
00000380: e9f6 573d 7ecb 09bd c5b0 203e d700 7fbd
00000390: 684a 873b bb58 d83d ea01 05be 548d 673d
000003a0: 316d 7ebd 8883 433d 82de da3b 2a69 90bc
000003b0: 1fb9 b6bd cf8a 7abc d6d0 e23d ce5d 1cbd
000003c0: 97dd 943d 6e0a 84bd 5404 70bd 562f f83c
000003d0: 2ba2 d63b e8dc 853e 38fb d8bd f297 953e
000003e0: 7b7f cd3d ddfe 813c 4240 2cbd 11f8 a4bc
000003f0: 957f ffbd b876 dd3c 0141 3e3e 564f 29bd

layer1.1.bn2.weight f4 [16]
0.94484144 1.188334 1.0488312 0.94068044 0.99467105 1.0161368 1.1324028 0.83000976
0.9351523 0.8637709 1.1073775 0.97542214 0.9224515 1.0152234 0.978543 1.1046977
00000000: 21e1 713f 541b 983f 1a40 863f 6fd0 703f
00000010: c3a2 7e3f c510 823f 93f2 903f 857b 543f
00000020: 2466 6f3f 1720 5d3f 8cbe 8d3f 44b5 793f
00000030: c825 6c3f d7f2 813f cb81 7a3f bc66 8d3f

layer1.1.bn2.bias f4 [16]
0.0670556 -0.34013528 0.0659398 -0.008068263 0.024901193 -0.13219373 -0.15938298 0.12211002
0.007598361 -0.06518403 0.022393845 -0.09275859 -0.060504362 -0.031550385 -0.018166073 -0.06817662
00000000: 7254 893d 3626 aebe 720b 873d bf30 04bc
00000010: 96fd cb3c cb5d 07be 4b35 23be d114 fa3d
00000020: acfb f83b 347f 85bd 4c73 b73c 37f8 bdbd
00000030: 6cd3 77bd fa3a 01bd 04d1 94bc 2fa0 8bbd

layer1.1.bn2.running_mean f4 [16]
-0.56842774 0.27505496 0.24165453 0.14727569 -0.3675304 -0.3170542 0.1608481 -1.1024433
-0.2323755 -0.6430208 -0.49108037 0.23309077 0.61369324 -0.1399196 0.014792579 -0.5437382
00000000: 7b84 11bf 01d4 8c3e 4974 773e 70cf 163e
00000010: f22c bcbe ee54 a2be 5db5 243e dd1c 8dbf
00000020: d8f3 6dbe 039d 24bf e36e fbbe 59af 6e3e
00000030: 001b 1d3f 1547 0fbe 935c 723c 6d32 0bbf

layer1.1.bn2.running_var f4 [16]
0.63575184 0.31979123 0.6698271 0.6965789 0.5323829 0.5911755 0.55128765 0.6977122
0.38632303 0.73908913 0.64141864 0.35456988 0.48655528 0.45567134 0.5145339 0.437914
00000000: a2c0 223f adbb a33e ca79 2b3f ff52 323f
00000010: 3f4a 083f 4757 173f 3021 0d3f 449d 323f
00000020: 22cc c53e f234 3d3f 0334 243f 2f8a b53e
00000030: c61d f93e c14d e93e 7eb8 033f 4436 e03e

layer2.0.conv1.weight f4 [32, 16, 3, 3]
-0.04124224 0.058122586 0.07183412 0.10579146 0.12373012 0.098880656 0.09737602 0.0055620987
0.09846699 -0.029618738 -0.0043963045 -0.08978466 -0.049433928 -0.022450356 0.017959155 0.108059965
0.14125197 0.08431634 -0.19270407 -0.08198291 -0.0798372 -0.16418178 -0.02089075 0.049098365
0.0988063 0.08878973 -0.034261197 -0.008229524 0.079475775 0.094299644 0.024229517 -0.015157696
-0.07438048 -0.047505897 -0.17908286 -0.084856756 0.05209201 0.040622022 -0.036482982 -0.07444477
-0.06618065 -0.05565462 -0.053304084 -0.10442048 0.013866768 -0.10719845 -0.05893423 0.017936973
-0.012652327 0.10178483 0.015736818 0.048547074 0.0072079967 0.007842094 -0.09222772 -0.129165
-0.104384385 -0.039669048 -0.0034793112 0.09437278 -0.00069676625 0.13585885 0.06760545 0.08775166
0.05802949 0.08320965 0.043901782 -0.004815156 -0.04477416 -0.08828257 -0.07085775 0.032899108
-0.0045571355 -0.012403404 -0.10278094 -0.088923074 -0.028042957 -0.17713556 -0.11856987 -0.08407715
-0.14968532 -0.08736423 0.073338225 0.01536912 0.05478587 0.18418029 0.256321 0.026937785
0.12978135 0.04288617 0.04028429 0.036951784 -0.17367262 0.0060088714 -0.07377068 -0.028532252
0.0024529595 -0.033639923 0.0030852347 0.063253544 0.08689722 0.031683326 -0.024466174 -0.052798375
-0.05678949 0.108722895 0.09987628 -0.014365354 0.005305624 0.050231285 0.07866149 -0.0254993
-0.015350917 -0.051759213 -0.053673115 -0.077341735 -0.046731275 -0.049214426 -0.14714137 -0.13502702
-0.083567515 -0.060136214 -0.07020251 0.06304125 0.0596643 0.073241495 0.15386471 0.06865073
0.028852807 -0.007416669 -0.030589942 -0.08006739 -0.096019246 -0.03237851 -0.030442461 -0.020487785
-0.09084282 0.038869485 0.087182604 0.012773626 0.036021274 0.03352831 0.04792575 -0.044460487
-0.04730995 0.04729814 0.010686213 -0.07442291 -0.03369849 0.08427372 -0.07322656 -0.075937055
-0.019760238 0.06824058 0.017898161 0.039851382 0.08250671 0.07479868 0.070015684 -0.009813504
-0.071574844 -0.01405808 0.13789979 0.05569323 -0.08305632 0.16891113 0.07504325 -0.09106276
0.046298623 -0.03395627 -0.021553118 -0.0026173403 0.11229555 0.098271854 0.016316416 0.06266615
0.089232825 0.016822074 0.032206163 0.034820106 0.018068688 0.107782565 0.10325387 -0.026494933
-0.00881568 0.008651757 0.10891136 -0.034061234 -0.075718686 -0.0379024 -0.066509254 0.0847419
-0.02436905 -0.09151568 -0.025009172 -0.09000674 -0.079787694 -0.07950266 -0.028158987 -0.08635935
-0.15821427 0.19597979 0.21774556 0.1300998 0.1162045 0.21257758 0.25924477 -0.084593855
-0.04150104 -0.088230945 0.11610386 -0.034147445 -0.05048209 0.11762792 0.107053585 0.035698015
-0.034702104 -0.050754942 0.019085899 0.025851956 -0.070076995 -0.038545992 -0.004900175 -0.010386374
-0.016611226 -0.023370067 0.074630514 0.07242227 0.030920492 0.04019934 0.010298353 -0.026772315
-0.054437194 0.08740371 0.09069097 0.032561027 -0.036900125 0.028957311 0.06139235 0.12118076
-0.08109676 -0.054908033 0.00077730813 0.020897299 0.11000988 0.058913693 -0.00341983 -0.044449337
0.005079652 0.01182133 0.05542311 -0.05979007 0.04596422 0.09993012 0.107596844 -0.060550153
00000000: a0ed 28bd f311 6e3d c41d 933d 31a9 d83d
00000010: 3866 fd3d f181 ca3d 146d c73d 4442 b63b
00000020: 10a9 c93d ffa2 f2bc e00e 90bb 05e1 b7bd
00000030: 3b7b 4abd cfe9 b7bc 141f 933c 8b4e dd3d
00000040: 5ba4 103e 0cae ac3d 3754 45be a8e6 a7bd
00000050: b081 a3bd 451f 28be 1423 abbc 5e1b 493d
00000060: f55a ca3d 64d7 b53d 7855 0cbd 20d5 06bc
00000070: 32c4 a23d 2c20 c13d fb7c c63c fc57 78bc
00000080: cb54 98bd 8b95 42bd 7f61 37be 61c9 adbd
00000090: 6e5e 553d 4763 263d 2e6f 15bd 8076 98bd
000000a0: b889 87bd 19f6 63bd 6255 5abd 68da d5bd
000000b0: 7131 633c dc8a dbbd 0565 71bd 8ff0 923c
000000c0: b54b 4fbc 9174 d03d 80ea 803c 4cd9 463d
000000d0: 0f31 ec3b 207c 003c e3e1 bcbd d443 04be
000000e0: 7bc7 d5bd 037c 22bd 2805 64bb 8446 c13d
000000f0: 31a7 36ba 951e 0b3e ba74 8a3d 24b7 b33d
00000100: 55b0 6d3d d269 aa3d 5bd2 333d 75c8 9dbb
00000110: 1c65 37bd 7ecd b4bd de1d 91bd 37c1 063d
00000120: 0654 95bb a637 4bbc d07e d2bd 4d1d b6bd
00000130: 58ba e5bc 0663 35be c3d4 f2bd a430 acbd
00000140: 1c47 19be 04ec b2bd 5a32 963d c3ce 7b3c
00000150: 2667 603d c299 3c3e 823c 833e a1ac dc3c
00000160: 67e5 043e 69a9 2f3d 2401 253d c15a 173d
00000170: 3cd7 31be 11e6 c43b 1515 97bd 78bc e9bc
00000180: d5c1 203b 04ca 09bd a631 4a3b 138b 813d
00000190: 2bf7 b13d 60c6 013d 496d c8bc 1c43 58bd
000001a0: 199c 68bd 1caa de3d ef8b cc3d a95c 6bbc
000001b0: cdda ad3b 52bf 4d3d 4619 a13d e8e3 d0bc
000001c0: 6a82 7bbc 7801 54bd 57d8 5bbd 5865 9ebd
000001d0: 4b69 3fbd 1195 49bd 3aac 16be 8644 0abe
000001e0: 7225 abbd 6451 76bd 55c6 8fbd c51b 813d
000001f0: 8e62 743d a3ff 953d b68e 1d3e c198 8c3d
00000200: b95c ec3c 8707 f3bb c297 fabc 5ffa a3bd
00000210: bda5 c4bd 549f 04bd 7862 f9bc 00d6 a7bc
00000220: cd0b babd 9c35 1f3d cb8c b23d 7848 513c
00000230: 0b8b 133d fb54 093d cb4d 443d 331c 36bd
00000240: 14c8 41bd b2bb 413d 3a15 2f3c 0a6b 98bd
00000250: 6e07 0abd b397 ac3d cff7 95bd e384 9bbd
00000260: 39e0 a1bc b8c1 8b3d 2a9f 923c 343b 233d
00000270: 47f9 a83d 0d30 993d 6264 8f3d d2c8 20bc
00000280: d595 92bd dc53 66bc 9a35 0d3e 961e 643d
00000290: 6f19 aabd 0af7 2c3e 47b0 993d 1d7f babd
000002a0: a0a3 3d3d bb15 0bbd 2a90 b0bc af87 2bbb
000002b0: 36fb e53d c142 c93d 01aa 853c 1c57 803d
000002c0: b3bf b63d 72ce 893c 9cea 033d 879f 0e3d
000002d0: c904 943c 1bbd dc3d c476 d33d e70b d9bc
000002e0: a46f 10bc 19c0 0d3c eb0c df3d cb83 0bbd
000002f0: 6612 9bbd 8c3f 1bbd 0136 88bd 298d ad3d
00000300: 9aa1 c7bc 936c bbbd 09e0 ccbc 7455 b8bd
00000310: bb67 a3bd 4ad2 a2bd adad e6bc 2cdd b0bd
00000320: ec02 22be edae 483e b1f8 5e3e e238 053e
00000330: a0fc ed3d f0ad 593e bbbb 843e 8b3f adbd
00000340: fffc 29bd 6db2 b4bd dcc7 ed3d 31de 0bbd
00000350: 4fc6 4ebd e8e6 f03d e93e db3d 1538 123d
00000360: cb23 0ebd 6ae4 4fbd 085a 9c3c 7bc7 d33c
00000370: 8784 8fbd 67e2 1dbd a691 a0bb 9c2b 2abc
00000380: 4414 88bc 9572 bfbc e2d7 983d 2152 943d
00000390: f94c fd3c 10a8 243d 6cba 283c 9d51 dbbc
000003a0: 89f9 5ebd b700 b33d 30bc b93d b65e 053d
000003b0: 9624 17bd e237 ed3c 8b76 7b3d 9e2d f83d
000003c0: 0f16 a6bd 3fe7 60bd 44c4 4b3a d030 ab3c
000003d0: dc4c e13d 7c4f 713d 3a1f 60bb 8210 36bd
000003e0: 3673 a63b 40ae 413c 5803 633d 6fe6 74bd
000003f0: fa44 3c3d 2aa8 cc3d bc5b dc3d 7003 78bd

layer2.0.bn1.weight f4 [32]
0.9564764 1.1114081 0.98307806 1.1607683 1.1325152 1.1306103 0.955409 0.91727537
1.0080488 0.9618149 1.0700401 0.91617006 0.9396683 0.918044 1.0242978 1.0440577
0.90210515 0.96038437 0.9598835 0.9578121 0.89324915 0.9229141 0.9206612 0.95615995
1.0900476 0.98316765 1.022729 1.0020261 1.0784085 0.9427486 0.91755766 0.9706516
00000000: a3db 743f 9f42 8e3f 01ab 7b3f 0e94 943f
00000010: 42f6 903f d7b7 903f af95 743f 8fd2 6a3f
00000020: be07 813f 8039 763f 13f7 883f 1f8a 6a3f
00000030: 1a8e 703f ee04 6b3f 311c 833f afa3 853f
00000040: 5df0 663f c0db 753f edba 753f 2c33 753f
00000050: faab 643f 1944 6c3f 74b0 6b3f e6c6 743f
00000060: ae86 8b3f e0b0 7b3f c9e8 823f 6442 803f
00000070: 4a09 8a3f f957 713f 0fe5 6a3f a07c 783f

layer2.0.bn1.bias f4 [32]
-0.23501012 -0.16699594 -0.17123888 -0.006266927 -0.15962261 -0.18967634 -0.05419993 0.03458
-0.019475257 -0.12388967 -0.14172868 -0.1680639 -0.07345059 -0.16454628 -0.025697025 -0.17501196
-0.17937808 -0.104078725 -0.15265955 -0.120968476 -0.14940648 -0.097896636 -0.21227096 -0.06577197
-0.14844063 -0.13390104 -0.07091996 -0.056461085 -0.0194991 -0.028822696 -0.17576349 -0.10417269
00000000: 7ea6 70be fc00 2bbe 3f59 2fbe cb5a cdbb
00000010: 1c74 23be 843a 42be bf00 5ebd c2a3 0d3d
00000020: 938a 9fbc deb9 fdbd 5321 11be f118 2cbe
00000030: 436d 96bd d27e 28be 9182 d2bc 5636 33be
00000040: e3ae 37be 3a27 d5bd c952 1cbe 52be f7bd
00000050: 03fe 18be 087e c8bd 8f5d 59be 74b3 86bd
00000060: d200 18be 5b1d 09be 7c3e 91bd bd43 67bd
00000070: 94bc 9fbc 931d ecbc 58fb 33be 7e58 d5bd

layer2.0.bn1.running_mean f4 [32]
-0.47702616 0.82736063 2.4423018 -1.1490935 1.2046479 -0.18143944 -0.50277865 -3.4690425
0.80912346 -0.6383366 -4.042088 -0.21664676 -2.347007 0.025576307 0.028708328 -1.5006207
-0.634791 -0.8419965 -0.7308386 -2.884833 -0.7346348 2.744188 2.889096 -0.7567867
-0.42355093 -0.27588952 -2.919026 -3.8845346 -1.4202288 -0.42149428 0.90744483 0.66673535
00000000: c63c f4be e8cd 533f ac4e 1c40 7f15 93bf
00000010: e731 9a3f 43cb 39be 1ab6 00bf cb04 5ec0
00000020: b722 4f3f 076a 23bf c958 81c0 a6d8 5dbe
00000030: 5d35 16c0 6785 d13c ba2d eb3c 5714 c0bf
00000040: aa81 22bf 158d 57bf 3d18 3bbf 1ba1 38c0
00000050: 0711 3cbf c7a0 2f40 f3e6 3840 c6bc 41bf
00000060: abdb d8be 6441 8dbe 52d1 3ac0 379c 78c0
00000070: 0fca b5bf 19ce d7be 4e4e 683f 2baf 2a3f

layer2.0.bn1.running_var f4 [32]
1.9379513 2.8101232 3.189488 3.5178607 3.902397 4.1630893 2.610613 2.3287618
2.2380722 3.557587 2.4847453 2.5872583 3.1999962 2.0970302 5.159189 3.788354
1.9227521 2.3073823 2.266415 2.7941942 1.8052092 2.4302166 2.642199 3.4151413
4.733107 3.722688 2.4115489 3.492616 2.5549257 2.6900918 2.6598334 2.6221893
00000000: ca0e f83f 0fd9 3340 9220 4c40 a124 6140
00000010: dfc0 7940 0738 8540 4914 2740 6f0a 1540
00000020: 933c 0f40 81af 6340 1106 1f40 a495 2540
00000030: bdcc 4c40 be35 0640 1418 a540 6474 7240
00000040: be1c f63f 27ac 1340 f20c 1140 14d4 3240
00000050: 1811 e73f ab88 1b40 ca19 2940 ad91 5a40
00000060: 9d75 9740 8540 6e40 d156 1a40 0587 5f40
00000070: e783 2340 772a 2c40 b63a 2a40 f3d1 2740
